CNN_bitflip/original_model.pth (torch, 128739 bytes, 4 tensors)

conv1.weight f4 [16, 1, 3, 3]
00000000: 35f6 ad3e dd5a 9a3e 869f 08bf 4349 033e
00000010: 6f11 e7bc 6cd9 71bd 4cbb 04bf 6914 633e
00000020: 8ebc fc3e 07a4 77bf 5cbe af3e 7dcf 803d
00000030: 7dde ad3e 41d6 923e 8da5 84bd 91ff 193c
00000040: 65eb c33d 61d6 0ebf 7f20 68be a6f8 77be
00000050: df01 0bbe 49c2 32bd 5e5a f0bd 7f65 013f
00000060: c754 8fbe 0aa4 cdbe 2383 523e f94d 58bf
00000070: ebe9 4cbe 45cd 4fbf 45e8 3a3f 2704 6b3e
00000080: ab83 503e 5683 2c3d ee04 16be 16d4 403e
00000090: 4646 a43d c52f ec3e aae6 9fbd 1cee efbe
000000a0: 30de c23d 7bc0 cebe 2754 ce3b 06b2 c23e
000000b0: 2e05 023e e5fe 813e e28f 263f d79b 8b3e
000000c0: 3579 fe3e 24b8 e6bd 5718 7ebf 55e5 7ebf
000000d0: da8b 53bf 5523 b93e d7a7 c2be bf06 ca3d
000000e0: 6a18 be3d 1189 5e3e 364b 243f 8811 a3be
000000f0: fa53 ec3c a50d 2cbf ae5e ce3d c1c7 8dbe
00000100: 51c0 d2be 0cf5 a9be a469 2f3f f34d 393e
00000110: 3c9b 72bf fd14 5cbe fb12 4f3f 87f4 a43d
00000120: a6ed 4b3e 3d3e 0fbf 944a 44bf 55ac 43bf
00000130: 9a97 05be 3f7a 5c3e c691 0f3f 5728 233f
00000140: 0583 c4bd f8b2 ed3c 237b 013f f4d0 a8bd
00000150: ecee 03bd 88b9 3f3e 64af 1f3f a737 4ebf
00000160: a727 27bf c412 7b3e 35b2 253e 3adb 61bd
00000170: 48bb 98bd 2a10 3a3f 03b0 8ebe 1971 2cbf
00000180: 4b2a 343f 3d3a 96be e071 d4be 47b7 31bf
00000190: f794 afbd d0c4 383f 8cb6 98be 3634 9ebe
000001a0: 1221 d93e 216a e4bd cff4 0ebf e914 38bf
000001b0: 83e8 b8bd 5223 3e3e 3cf5 733f d5bc d7be
000001c0: ef7d 0fbe d677 28bf 0b13 cebe 496a c23d
000001d0: 6a36 f0be ad76 23be 9c67 f4bc 57a1 43be
000001e0: 723c 103e 31e6 e4bd 7b9f 383d e630 1cbe
000001f0: 1a3a 1bbe 5359 12be a680 0cbf 66a6 e9be
00000200: f76c 243f d5dd 13bf 7ebb c73e ce8d c83e
00000210: b005 abbe 0305 fd3e f27e debd 5d73 9fbe
00000220: 8739 0bbf 075f 28bf 455c d5be dbc6 ccbd
00000230: a6ca e13e c124 29bf 227c 1f3f e0cc 683e
0.33976904 0.30147448 -0.53368413 0.12820916 -0.028206555 -0.05904524 -0.5184829 0.22175755
0.49362606 -0.9673466 0.3432492 0.06289575 0.33958808 0.28679088 -0.06476889 0.009399311
0.09566382 -0.55795866 -0.22668646 -0.24215946 -0.13574933 -0.043642316 -0.11735986 0.50545496
-0.27994367 -0.40164214 0.20557837 -0.84493977 -0.20011108 -0.8117259 0.73010665 0.22950803
0.20362727 0.04211744 -0.14650318 0.18830904 0.08021216 0.46130195 -0.078076676 -0.4686135
0.09515035 -0.40381226 0.006296653 0.38026446 0.12697288 0.25389782 0.650633 0.27267334
0.4970185 -0.11265591 -0.9925589 -0.9956868 -0.8263527 0.3615977 -0.38018677 0.09864568
0.09282 0.21731974 0.6417726 -0.31849313 0.028848637 -0.6720832 0.100766525 -0.27691463
-0.4116235 -0.33194768 0.6852057 0.18096142 -0.9476812 -0.21492381 0.80888337 0.080544524
0.19914874 -0.55954343 -0.766763 -0.7643483 -0.13046113 0.21531008 0.5608181 0.6373343
-0.095953025 0.029016003 0.50578517 -0.0824298 -0.032210276 0.18723118 0.62377 -0.8055367
-0.6529488 0.24518877 0.16181262 -0.05514071 -0.07457596 0.72680914 -0.2786866 -0.67360073
0.70377034 -0.29341307 -0.4149313 -0.69420284 -0.08573335 0.7217531 -0.29826772 -0.3089921
0.42408043 -0.11153055 -0.558423 -0.71906906 -0.09028723 0.18568161 0.9529607 -0.42136255
-0.14012884 -0.65807855 -0.40248904 0.094929285 -0.46916515 -0.1596324 -0.029834561 -0.19104515
0.14085558 -0.11176718 0.045073967 -0.15253028 -0.15158883 -0.14291887 -0.548838 -0.45634764
0.6422877 -0.57760364 0.39010233 0.39170688 -0.33402777 0.49417886 -0.10864057 -0.31142703
-0.54384655 -0.6577 -0.4167196 -0.09998866 0.4409992 -0.66071707 0.62298787 0.22734404

conv1.bias f4 [16]
00000000: 8d39 2abf 11c2 b9be 0e77 62be 9367 8dbe
00000010: ccba 95be 1aa0 bcbe 3d58 24be e7c3 ebbe
00000020: e962 a2be 40af 18bf dad0 d4be 3f66 31bf
00000030: 9f46 d7be e0b1 d53c c87c babe 38e1 13bf
-0.66494066 -0.36280873 -0.22115728 -0.27618083 -0.29244077 -0.36840898 -0.16049285 -0.460479
-0.31716087 -0.5964241 -0.4156559 -0.6929664 -0.42046067 0.026085794 -0.36423326 -0.5776553

fc.weight f4 [10, 3136]
00000000: 75f7 843c dc95 803b 88df 97bd 1bc7 dc3d
00000010: cf6c a8be 60f4 61bd 8601 d1be bcb5 24be
00000020: 3c28 5ebe 8690 4dbe 92b9 65be 627c aebd
00000030: c5f3 9ebd 1886 95bb 7a02 6fbd 0022 99bd
00000040: ce6c 8bbe c4db eabd 5c51 353d 6c75 013e
00000050: d416 ed3d ca32 05be 3f9c 06bd 9068 bbbe
00000060: 9e8c 98bc 1c7a 67be 4b36 18be 02a1 4ebd
00000070: 0818 a3bb 92e8 a53d 99ec d53b 0ae7 5abe
00000080: b877 0b3d 788c 003e f67f 773e af37 9b3d
00000090: 8ecc d33c 3995 6e3e 7d41 c53d 16a9 353e
000000a0: 2648 04be 6129 13be d43f 03bd c127 f0bd
000000b0: 75cd 91bd b627 4cba 175f f23b 6214 983d
000000c0: 31cd 9d3d cd56 903d 6e26 0c3e 9faf da3d
000000d0: 146b 193e 5099 1b3e 7b50 c9bd 7fdc 88be
000000e0: 299a cc3d e3a2 963d ca7c d3bd 5db2 493e
000000f0: 93a9 9fbd d54d afbd 0f59 11bb 194c 0a3e
00000100: c3eb 6f3e 961e 913e 849d fd3d 3f2c 453e
00000110: cc8c e23d 848d efbe 72cd 0cbd 90d6 4ebe
00000120: b06d ddbc 0b58 273d e186 e1bc abfb ea3d
00000130: 838c cf3c 488e 003e 54fd 473e 7991 f33c
00000140: a989 8d3d 3564 7c3e 5f1c 9a3d f0ef a1be
00000150: a00d b2bc d49c 67be b7f8 e83b 0f25 c83d
00000160: b96e a53d 2b1d 013e abf0 453c 936d 283d
00000170: dc5e 88bd 163f aebd c62a 13bc c46f e63c
00000180: 15a6 a5bd 4138 32be ce55 bfbd 3ec8 a2be
00000190: d18c 023e 3b7b 793d d371 563e da13 443e
000001a0: 60e2 683e 66a0 703d 56b6 06be 1547 d6bd
000001b0: 9f80 10be 0588 5f3e 3598 0cba efbd 4cbd
000001c0: 7d8c 16bc a4a8 c2bc d8bc 263e 1b0d e13d
000001d0: 0c55 0c3e c964 8b3c 721e a33d e1ce 22be
000001e0: 2083 2cbe d1b6 f7bd 8275 383b 4e94 123d
000001f0: e911 1cbd 3ea9 28be d98f a73c 2b3c 433e
00000200: eb8e 4b3d 8cdb 02bb fe81 093d 0d22 8bbd
00000210: 7c8e 9f3d 2c43 04be 4f03 62bd 7705 cebd
00000220: fa22 14be b366 543c 4e8b 6ebc d7ce 09be
00000230: e604 8abe 611a 9dbe ce88 bdbc e17a b8bd
00000240: 18f9 acbc fbb5 fc3a 5a2a 283e 6ee4 133e
00000250: 5a0e 7abe 2d79 babd 1479 833c 90e8 a4bd
00000260: b8d2 4d3d 7d50 51be f91e 12bc 8bf3 a0be
00000270: 0c06 95be a3c3 083d ed47 32bd 5b80 d43d
00000280: 20dd 4b3e 262a df3d 5d72 8b3e 906c 64bd
00000290: e486 c1bd 0bd6 643d c997 7ebe 73b5 b9bc
000002a0: 70c2 61bc b857 c7bc f249 80ba 3716 31bb
000002b0: fc45 0bbe 2d8e f33d ae5c 95bd 21c2 1ebe
000002c0: 5f5e b0bc e0b5 243e 33be e5be 8a46 7dbe
000002d0: 49d0 57be d25a 32bd d757 14bc 70b7 82bc
000002e0: 9551 38bd bfc7 abbe 81cf a4be 4848 64be
000002f0: f572 a8be fb54 f2bd 69c3 55be bac7 a8be
00000300: 813b b8be 9c3c 92be 0afe 02be 3923 50ba
00000310: de39 313c 1054 d8ba d8a8 cabc 70d2 0c3d
00000320: 6066 66bd b989 2ebe 4675 b73d b2cf 203d
00000330: 2319 033e e1f7 a53d 7301 a9bd 1510 57bd
00000340: 547b 38bd 40dd a439 d466 823c 9f25 383e
00000350: fdca 38be d443 103d d9d6 b9bd 0daf eebc
00000360: e0b4 1dbe cb6b cebc cd64 37be 5f24 74be
00000370: ce13 9cbd 309d 38bd 858e b7bd e136 33bd
00000380: aa67 76bc d67c 793e cab8 bcbd bb64 39be
00000390: d9bc b43d 9c30 2fbe 48bc 1abd e424 133e
000003a0: 2087 773d b680 9d3d bd47 f93d 20c1 443e
000003b0: 45ba c9bd b777 d0be e8fd f1bc 2245 853d
000003c0: 35bb 7d3d b9c1 1abe 51de a3bd 4b39 99bc
000003d0: 953c c83d a16f 51be 644a 0ebe 1bf6 84bd
000003e0: 467b 05be a37d 85bd 2d29 92bd 7c18 14be
000003f0: a51f d53d 8339 85bd 3ce0 fe3a 7459 98bd
0.016231278 0.0039241146 -0.07415682 0.10780164 -0.32895514 -0.055164695 -0.40821475 -0.16084951
-0.21695036 -0.20074663 -0.2243407 -0.08519818 -0.07761339 -0.0045631044 -0.05835197 -0.07477188
-0.2723145 -0.11467698 0.044267043 0.12642449 0.1157662 -0.13007656 -0.03286385 -0.36603212
-0.018621739 -0.22605175 -0.14864461 -0.050446518 -0.00497723 0.08101 0.006528449 -0.21377197
0.03404972 0.12553585 0.24169907 0.0757898 0.025854375 0.23299111 0.096316315 0.17740282
-0.12918147 -0.14371254 -0.032043293 -0.117263325 -0.07119266 -0.00077879 0.0073965895 0.07425763
0.07705153 0.07047806 0.13686535 0.10678028 0.14982253 0.15195203 -0.098298036 -0.26730725
0.09990341 0.07355287 -0.10326536 0.19696946 -0.077960156 -0.08559767 -0.0022178327 0.13505591
0.2342978 0.28343648 0.12383559 0.1925516 0.11062011 -0.46787655 -0.034375615 -0.20199037
-0.027029842 0.04085545 -0.027530136 0.11473783 0.025335556 0.12554276 0.19530231 0.029732453
0.06911022 0.24647601 0.075249426 -0.3162837 -0.021735013 -0.22618419 0.0071097272 0.09772693
0.08077759 0.12608783 0.0120813055 0.041120123 -0.06658718 -0.085081264 -0.008982366 0.028129466
-0.08088318 -0.17404272 -0.09342538 -0.31793398 0.1274903 0.060908537 0.20941858 0.19148198
0.22742605 0.058746718 -0.13155493 -0.104627766 -0.14111565 0.21829231 -0.0005363257 -0.049985822
-0.009188768 -0.023762055 0.16282976 0.10988828 0.13704318 0.017015832 0.07964791 -0.1589923
-0.16846895 -0.12095416 0.0028146212 0.035785966 -0.038103018 -0.16470811 0.020454334 0.19065921
0.049696844 -0.0019967286 0.033571236 -0.06793604 0.077908486 -0.12916249 -0.055178937 -0.10059636
-0.14466467 0.0129639385 -0.01455958 -0.1345781 -0.26956862 -0.30684188 -0.023136523 -0.09007812
-0.02111487 0.0019280309 0.16422406 0.14442608 -0.24419537 -0.09105144 0.016048945 -0.0805217
0.050249785 -0.2044086 -0.008918517 -0.3143581 -0.29106176 0.0333897 -0.043525625 0.10376044
0.19908571 0.10896711 0.2723569 -0.055767596 -0.094495565 0.05586819 -0.24862589 -0.02266953
-0.013779268 -0.02433382 -0.0009787662 -0.0027021298 -0.13600916 0.11892352 -0.07293068 -0.15503742
-0.021529375 0.16085005 -0.44871673 -0.2473394 -0.21075548 -0.043543644 -0.009054146 -0.01595661
-0.044999678 -0.33550832 -0.32189563 -0.22293198 -0.32900205 -0.11832615 -0.20875324 -0.3296488
-0.35982898 -0.28561866 -0.1279222 -0.0007939819 0.010817019 -0.0016504545 -0.024738714 0.034380376
-0.056249976 -0.17044725 0.08957915 0.039260574 0.12802558 0.0810392 -0.082522295 -0.05250557
-0.04503949 0.00031445362 0.015918173 0.17983101 -0.18046184 0.035220936 -0.09074182 -0.029136205
-0.1540103 -0.025197884 -0.17909546 -0.23842 -0.07620965 -0.04507178 -0.0896273 -0.04375351
-0.015039364 0.24364027 -0.09214933 -0.18104832 0.08825082 -0.17108387 -0.037777215 0.14369541
0.0604316 0.07690565 0.12171886 0.19214296 -0.09849981 -0.40716335 -0.029540017 0.06507327
0.061946113 -0.15112962 -0.08001388 -0.018704077 0.0977718 -0.2045274 -0.13895565 -0.064922534
-0.13035306 -0.06518104 -0.0713676 -0.14462465 0.10406426 -0.0650511 0.0019445489 -0.07438937

fc.bias f4 [10]
00000000: 74bc 53bb 4d1d 063e c1e9 623d 1c48 50bd
00000010: 1509 a5bc 09d5 303d 435f 16bc 6853 943d
00000020: b9e6 cabd 602a 34bd
-0.0032308372 0.13097115 0.055398706 -0.05085002 -0.020145932 0.043171916 -0.009177986 0.07242471
-0.09907288 -0.043985724
