MLP_bitflip/attacked_mlp_model.pth (torch, 943833 bytes, 6 tensors)

model.0.weight f4 [256, 784]
00000000: ef8b 103d c11f 1a3d f74d c8b9 e215 273d
00000010: 8275 2739 fee5 783c 880e 1abc d83b ed3c
00000020: aea9 213d 193a 95bc 4adb 1f3d 5a56 703c
00000030: c776 163d c374 933c 4f99 ce3c abdc 403b
00000040: aa79 113d ac4f 593c 6558 0ebc b5fc 8b3c
00000050: 2fc6 0abc 58ce 783b e6ac d5bb 44bf 013d
00000060: 2389 a5bc 2aef 0abc 21a0 09bb df01 5dbc
00000070: fc0c 3a3c 128e dfbc 55d1 243d 7f1e b7bc
00000080: ada4 113d 543f 643c 39d6 893b b6b3 2d3d
00000090: 8f32 0b3d 1525 363d 475a 103d 1136 a63c
000000a0: c392 3d3d 1208 8a3c db94 823c 368e da3c
000000b0: c125 403d 0918 083a 0fcf 2a3d c572 533d
000000c0: 6113 613d f4de 0b3d 5e98 5d3c 0340 43bb
000000d0: 52ff 9ebc 24bd 183d 55ae 953c 3499 ba3c
000000e0: c6f0 9d3c 8849 f13b 5b34 133d c116 9ebc
000000f0: 362b 413c b642 54bc 4343 e03c f506 7c3c
00000100: 64d8 773d 41f9 893d 2cc9 3e3e 6f0b 263e
00000110: 7328 b53d 8544 2a3d cff3 693e 7a27 843e
00000120: 1874 7d3e c2c5 513d 715c a73d 006f 903d
00000130: 5e63 463d 7a01 b63d ed42 d43d 4dee 873d
00000140: 1498 25bc d47c 9bbc b9a4 dc3c 9463 d3bb
00000150: e3fa f23c 2481 00ba 05d7 8fb9 cba8 fbbc
00000160: ee17 c7bb 8b25 d93c 1e9f 7f3d b81d 153d
00000170: ae76 cb3d 51c6 053e e318 413d 2335 1ebd
00000180: 9441 e0bd 93fd 4fbd 421b d33d 24c2 463e
00000190: af5b 3e3e 235a ae3d e72c 86bc 0d6f ff3d
000001a0: 4db6 763d 96bf 073e 6fb5 493d f70d 083d
000001b0: 171a 583c 9240 72bc 17ef 323d 5c57 713c
000001c0: 0092 9b3c 6379 cfbc cd59 d5bd 6034 eabc
000001d0: d7f1 5c3c 0908 7d3c 8d47 803c 9595 d5bc
000001e0: 3d41 4fbb 864f 23bc a0ab 903d 6ac8 113d
000001f0: 0718 3ebd 8b87 333d 8abc 5f3e 0b97 b43d
00000200: b5e2 403e b5d6 cc3d ec44 e13d 2256 2d3e
00000210: 0f47 d23d acf2 123e 31b7 2cbd f07f bdbb
00000220: 8e0f 1abd 8151 ccbc fc0e 833c ae7d 4b3a
00000230: f250 b33c 11b1 aebc b36b af3c 3eda c9bc
00000240: 2fb8 0e3c a8db e33c 1d22 d43c 1149 6dbd
00000250: 53ab fa3d 1cd6 aa3d 7db5 093e d749 e4bc
00000260: a2aa d33c 1d9d 983d a7c0 7c3e 4ff6 a53d
00000270: 51df 873e fd2c 7e3e 3650 c93a 8e80 adbd
00000280: 2295 cfbc 7991 0ebe 98ed 15be f3ca 61be
00000290: 9496 a2bd 8831 c7bc 9554 c7bb fdd2 253d
000002a0: bca3 823c 5fec 40bc 0171 37bc 5a46 71bb
000002b0: e427 f63b e710 7ebd 209c f0bd 796d 2dbe
000002c0: 30a9 d8bd 8d73 003e c40c ba3d 2f41 28bd
000002d0: 42a0 24bc 736e 8b3c b553 d93d f05f d1bc
000002e0: 7bb5 c73c 3b83 083c 95f3 46be 6bd6 b6be
000002f0: 4a85 02bf 5c95 04bf 4079 9fbe d72e 6cbe
00000300: 68f7 abbd bb31 1d3d 0f69 bdbb b5a0 ba3a
00000310: 745c 0b3c 59cb 813b 4bfa 873c 2dc7 42bd
00000320: 5f6d 90bd b898 cebd 70e4 acbd cd65 b2bd
00000330: 1e53 a6bd 2cd1 953d 5f26 853d c3c0 85bd
00000340: 22e1 43bd f41e f9bc cc3a 6c3d 6193 fabd
00000350: 7168 95be 0a12 84be 0a6a fabe e4f2 25bf
00000360: 45e9 35bf 90fa ffbe 2f0d dcbe 7779 a8be
00000370: c465 c03c b54b c63d b2f3 85bd 995e 113b
00000380: ebcf e4bc a803 023d c7a0 053d 01f1 2dbc
00000390: 82a3 e33b 0e73 333d 7916 8abd 0e69 c5bd
000003a0: 83cb ddbd 885b 5cbd 770d 69bd 2a45 fabd
000003b0: 9df1 57be 5b5a 35be a6c9 58be fbfa d0be
000003c0: d6d6 e6be 870b 07bf 6520 16bf f787 07bf
000003d0: 4cb3 72be a5a4 8dbe a482 75be a175 0fbd
000003e0: 7788 763d ae72 ae3d 3d45 4ebd 0e0c b9bc
000003f0: c595 1b3b 5262 12bc 47b0 2cbc 49be 16bd
0.0352897 0.03762794 -0.0003820506 0.040792353 0.00015970136 0.015191553 -0.009402879 0.0289592
0.03946846 -0.01821618 0.03902749 0.014669025 0.03673437 0.018000012 0.025219588 0.0029428403
0.03551642 0.013263624 -0.008688067 0.017088274 -0.008470102 0.0037964787 -0.0065208552 0.031676546
-0.020206993 -0.008479873 -0.0020999985 -0.013489216 0.011355635 -0.027289424 0.040238697 -0.022353409
0.035557438 0.013931114 0.0042064455 0.042407714 0.033983763 0.044468958 0.035242345 0.020289453
0.04628254 0.016849551 0.01594012 0.02667914 0.046911005 0.000519157 0.041701373 0.051623125
0.05495012 0.03414817 0.013525097 -0.0029792793 -0.019408856 0.037289754 0.018271605 0.022778131
0.019279849 0.007363502 0.035938602 -0.01929796 0.011790087 -0.012955358 0.027375823 0.015382518
0.0605091 0.067369945 0.18631428 0.16215299 0.08845606 0.04156925 0.22846912 0.25811368
0.24751318 0.051213987 0.08171929 0.070524216 0.048434608 0.088870004 0.103643276 0.06637249
-0.010107059 -0.018980421 0.026934015 -0.0064510796 0.029660648 -0.0004902056 -0.00027435287 -0.030720135
-0.0060758507 0.02650716 0.062407605 0.036405295 0.09934746 0.13063933 0.047142874 -0.038624894
-0.10950008 -0.050778937 0.103079334 0.19409996 0.18589662 0.08513286 -0.016378833 0.12472353
0.06023245 0.13256678 0.049245294 0.033216443 0.013189814 -0.014785903 0.043685045 0.014730301
0.018990517 -0.025326436 -0.10417519 -0.028589427 0.0134853935 0.01544381 0.015659118 -0.026072303
-0.0031624578 -0.00996769 0.07063985 0.03559152 -0.046409633 0.043830436 0.21849266 0.08817872
0.18836482 0.100018896 0.10999474 0.16927388 0.102674596 0.14350384 -0.042166892 -0.0057830736
-0.03761249 -0.024941208 0.015998356 0.0007762563 0.021889184 -0.021324666 0.02141366 -0.024640199
0.008710905 0.027814701 0.025895173 -0.05793101 0.12239709 0.08341619 0.13448139 -0.02786724
0.0258382 0.07451842 0.24682866 0.0810362 0.26537564 0.24821849 0.0015358988 -0.084717855
-0.025339667 -0.13922681 -0.14641416 -0.22050075 -0.07938877 -0.02431561 -0.006083081 0.040484417
0.015947215 -0.011775105 -0.011196376 -0.0036815614 0.0075120796 -0.062027838 -0.117485285 -0.16936292
-0.10579145 0.12544079 0.09084466 -0.04107779 -0.010047974 0.01702044 0.10611669 -0.025558442
0.024378529 0.008332069 -0.19428857 -0.35710463 -0.5098463 -0.51790404 -0.31147194 -0.23064743
-0.08396798 0.038377505 -0.005780346 0.0014238568 0.008505929 0.0039610085 0.016598841 -0.04755323
-0.07052111 -0.100877225 -0.084420085 -0.08710823 -0.08121322 0.07315287 0.06501459 -0.06530907
-0.047822125 -0.030410267 0.05767326 -0.122351415 -0.29181245 -0.25795013 -0.48909026 -0.64823747
-0.71059066 -0.49995852 -0.42978808 -0.3290517 0.023486026 0.09682409 -0.06540622 0.0022181629
-0.027931174 0.031741768 0.032624032 -0.010616542 0.006946982 0.043810897 -0.067425676 -0.09639178
-0.108298324 -0.05379823 -0.056897607 -0.12220223 -0.21088262 -0.17710249 -0.21170673 -0.40816483
-0.45085782 -0.52751964 -0.5864318 -0.5294184 -0.23701209 -0.27664676 -0.23975617 -0.03502429
0.060188737 0.08517967 -0.050359 -0.022588756 0.0023740393 -0.008934574 -0.010540075 -0.036802564

model.0.bias f4 [256]
00000000: b427 5b3c 741c a8bc 82cb bdba e55a 7cbc
00000010: 61d7 4abd c24f d9bc 3452 9cbd 45af 88bd
00000020: 32fa 34bd 5be3 73bc 2d01 9dbd f6b3 e3bc
00000030: 0c40 c43b e708 93bd 420a aefb 7aad 803b
00000040: 2f65 06bd 180d be3c c2ea 253c 6075 92bd
00000050: fa5a 733c 8b87 7a3c 7539 883b c750 c9bc
00000060: f3ed 29bd af20 05bc 632a b2bc a3e7 2d3d
00000070: 6f45 203c 1337 099d 5215 36bd 2311 7abc
00000080: ad81 6bbd 8d2b 273c 7ec3 9fbd 3e38 2c3c
00000090: f268 8abd 971d 87bd 5f51 9bbc ea04 701c
000000a0: fb3a 6339 a757 683d c9cf 7bbc e286 5fbc
000000b0: 1629 60bd f7e0 15bd 1e43 7dbc 0875 bebc
000000c0: 9935 3cbd 4a7e a0bc 79be 0bbd 2793 d1bc
000000d0: e9f2 d0bc 6989 b1bb 1e04 11bc 5569 403b
000000e0: c008 f93b 77d7 a1bd 1693 f53b 280c 37bd
000000f0: ecdd 373a c670 a33c ea7c 45bd 11d4 b5bd
00000100: a16e 80bd 14e8 9ebc 8049 8abd f1ef 3ebc
00000110: cf69 91bc cec3 103b 8116 ad3b f972 d0bc
00000120: e324 d9bc c00a 13bc 6c98 e5bd 81ac 2fbd
00000130: e080 17ba dc84 6cbd 4fff 76bd df9e fabc
00000140: 1e69 73bd 6dd7 9dbc e3e8 afbd 8d76 24bd
00000150: 9a1d 59bd 80d7 a8bb e752 80bc 2af8 72bd
00000160: 5465 79bd 45cf 47bd ef07 803c 2fe1 95bd
00000170: 3844 2abd eaca 9bbd 51ca 3abd eabf 0bbd
00000180: c9f7 37bd e73e d73c efff f4bc 8645 07bd
00000190: 4e28 12bd 3186 aebd d1fc 93bd 7b17 15bd
000001a0: 9955 f9bc 6067 33b3 fe73 babd 35c3 85bd
000001b0: f06c 93bd ab7a c1bc 9840 9cbd 46a2 38bd
000001c0: 4085 c1bc 562a e5bd 439d e5bd 38ef a0bc
000001d0: 53ce 48bd 21a5 05be 9cf8 0fbd b321 b63c
000001e0: 2c1c 523c c6e7 1fbd 26db 2e3a b987 87bd
000001f0: 4782 9abc e9d1 1b3c ee32 39bd cb6f 7c3c
00000200: 3491 293c f6b1 5dbd 08d9 9abd e571 40bc
00000210: a8a7 cf3c a3c6 86bd 2a62 cb3c 9eb1 743c
00000220: 2ada aa3b ed5d 653c 2efa 08bc 6d1b 44bd
00000230: c874 b0bd 3b01 c17c 65e8 19b9 bbb1 9dbd
00000240: 7da9 4cbd 4deb 39bd b3bb 14bc d8ec 7dbc
00000250: 4b40 5cbd f501 8bbc 13c4 35bd fdf9 f9bc
00000260: 0cc4 d5b8 47c2 02bd 4713 1dbd 82af 40bd
00000270: ae3b 70bd 4ec6 c9bb ec46 9539 0f7e 45bd
00000280: b178 b7bd 0735 3abd e452 3fbd 1bd7 88bc
00000290: 8fe5 473d ebce ccbd b77a 69bc ff8d d4bc
000002a0: 997e 8abd b6f0 eabc 4b8f 04bd 8d24 60bd
000002b0: f1eb 48bd 6199 6abc 7346 8a3c d521 59bc
000002c0: f545 a0bd 23e2 3fbd d874 f23c 181b b2bd
000002d0: bd8b b4bd f474 243c 8648 4fbd b3ac 0dbd
000002e0: f2a5 13bd 11c4 56bd 6d4c 9c3c 4565 0fbd
000002f0: bcbe 993c 16eb 19bd 0e33 acbe 0898 afbd
00000300: e751 ec2c 2d87 8dbd cafd 21bd a2dc a7bd
00000310: 9fa1 32bd ceb1 7fbc 0454 4fba 7cbf fcbc
00000320: 2a9f b73c 1a6e 7fbd 3429 6cbd fc21 04bc
00000330: e4f0 62bd 9869 23bd 6a3f 82bc ef5c 61bd
00000340: c637 a1bc 4c27 15bc b73a 94bd 2ca9 bc3c
00000350: 02de 37bc 9826 092b 00df 7fbb bf37 4fbd
00000360: 063f c3bc 1ac0 23bd 909e aebd 4553 bc3c
00000370: 776a dabc 98f0 17bd f056 5cbd 747f a8bd
00000380: 1723 58bd ca81 4bbd 4474 39bd 92ec b93b
00000390: 203a 02be 8e6e 6d3c 1d6b 8d3c a356 4dbd
000003a0: 7941 2cbd dc99 1fbc e522 36bc 39e4 f73b
000003b0: 9df5 1cbd 77dc d9bc db1f c6bd a3a5 f3bc
000003c0: 0938 5cbd 388a 4fbd 9042 a5bd 6b8c f1bc
000003d0: 544f cebc 1008 b9bd 37fc eeba f35f 993b
000003e0: 71b8 77bd 4d3e 443c ea71 55bc 5267 b7bd
000003f0: a39c cd3b 4ad1 17bc 66d2 5fbd 3d73 1ebc
0.013376165 -0.02052138 -0.0014480206 -0.01540253 -0.049521808 -0.02652729 -0.076328665 -0.06674055
-0.044183917 -0.014885749 -0.0766624 -0.027795773 0.0059890803 -0.07179432 -1.8073354e+36 0.00392693
-0.03281134 0.023199603 0.010126771 -0.07151294 0.0148532335 0.015291105 0.00415724 -0.02457465
-0.04148669 -0.008125468 -0.021748727 0.042457234 0.009782179 -1.8160272e-21 -0.044453926 -0.015262875
-0.057496715 0.010203254 -0.07800959 0.010511456 -0.06758298 -0.06597441 -0.0189597 7.941569e-22
0.00021670379 0.056724217 -0.015369364 -0.013642998 -0.054726683 -0.036591496 -0.0154578965 -0.023249164
-0.045949552 -0.01959147 -0.034117196 -0.025582863 -0.025506454 -0.005417992 -0.008851079 0.0029359658
0.00759992 -0.07902425 0.0074943407 -0.044689327 0.0007013965 0.019951236 -0.04821483 -0.08878339
-0.06271101 -0.019397773 -0.067523 -0.011653886 -0.017750649 0.0022089365 0.0052822237 -0.025445448
-0.026506847 -0.008974731 -0.11210713 -0.042889122 -0.0005779397 -0.057743892 -0.060302075 -0.030593334
-0.05942642 -0.019267762 -0.085893415 -0.04015212 -0.053006746 -0.0051526427 -0.01566453 -0.0593187
-0.06088765 -0.048781652 0.015628783 -0.07318341 -0.041568965 -0.07607062 -0.0456031 -0.03411857
-0.04491404 0.026275111 -0.029907195 -0.033025287 -0.03568297 -0.08521689 -0.07225955 -0.036399346
-0.030436324 -4.1770704e-08 -0.09104155 -0.065313734 -0.071985126 -0.023618063 -0.07629508 -0.04507663
-0.023623109 -0.111897156 -0.11211636 -0.019645318 -0.04902489 -0.13051273 -0.0351492 0.022232866
0.0128240995 -0.039039396 0.0006670229 -0.06617684 -0.01886095 0.009510496 -0.045214586 0.015407513
0.0103495605 -0.054124795 -0.07560927 -0.011745905 0.0253485 -0.06580856 0.024827082 0.014934925
0.0052139955 0.013999444 -0.008360429 -0.047877718 -0.08616024 8.017106e+36 -0.00014677791 -0.07699915
-0.049966324 -0.045390416 -0.009077954 -0.0154983625 -0.053772252 -0.016968707 -0.044376444 -0.030514712
-0.00010193148 -0.03192356 -0.038348462 -0.047042377 -0.058650665 -0.006157673 0.00028472336 -0.048215922
-0.08958567 -0.045460727 -0.04670991 -0.016704133 0.04880291 -0.10000404 -0.014250449 -0.025946615
-0.06762428 -0.028679233 -0.032363217 -0.054722358 -0.049053136 -0.014318795 0.016879296 -0.013252695
-0.07825843 -0.04684652 0.029596731 -0.08696574 -0.088157155 0.010037649 -0.050606273 -0.034588527
-0.03604693 -0.052433077 0.019079411 -0.035008688 0.018767707 -0.03757771 -0.33632702 -0.085739195
6.7166164e-12 -0.06910548 -0.039548673 -0.08196379 -0.043611165 -0.015606357 -0.00079089426 -0.030853026
0.022414763 -0.06236086 -0.05765648 -0.008064743 -0.055405512 -0.039895624 -0.015899379 -0.05502027
-0.019679915 -0.009103607 -0.072377615 0.023029886 -0.011222364 4.8725737e-13 -0.003904283 -0.050590273
-0.023833763 -0.039978124 -0.08526337 0.022988925 -0.026662095 -0.037094682 -0.053793848 -0.08227435
-0.05276784 -0.049684323 -0.045276895 0.0056739533 -0.12717485 0.01449169 0.01726299 -0.05013145
-0.042054627 -0.009741273 -0.011116718 0.007565048 -0.038320173 -0.026594384 -0.09674045 -0.029742068
-0.053764377 -0.050668925 -0.080693364 -0.029485902 -0.025184311 -0.09034741 -0.0018233125 0.0046806275
-0.06047863 0.011977744 -0.0130276475 -0.08955254 0.006274776 -0.009266207 -0.05464401 -0.00967103

model.2.weight f4 [128, 256]
00000000: 5ce0 113c 12e1 de3b 5c03 e2bd e478 3ebb
00000010: 33b8 313e 978e bdbb 0547 d03c f4bd cf3d
00000020: 61ed 843b b52a 823c 1157 05bd 4e1b e7bd
00000030: efcc e9bc d087 cebc 4291 3b3e 45a4 86be
00000040: 0e25 dfbd 1d4d f43c dae7 83bb dcd9 afbb
00000050: 26f5 7d3d ecd5 2c3e b24b 133e 08aa 45be
00000060: 60be 003e cb87 d8ba 09bd 613c 7781 94bd
00000070: d114 84bc 16bb 563e cf63 39be 9536 7f3c
00000080: 4c65 543b 9ff0 55bd efd0 5f3d ba81 aa3c
00000090: abd8 7b3d dbd0 f23d 4a7b 5ebe 5138 df3c
000000a0: b637 bf3d 7849 0cbe 374a 803e 9958 76be
000000b0: 36fa 5ebc a857 58bd 7099 41bd 9a62 98bd
000000c0: 70c3 eebc 7780 8bbd d774 173c bb0f 4fbe
000000d0: 8547 3cbe efc4 a93c a12d d63d 07b8 873d
000000e0: e1f0 02bd 3921 24bb d75b 0ebe 1120 80bc
000000f0: a29c 1bbe 4f3b ad3d b50e 4d3e 543d 113e
00000100: 544a 193e 3563 3d3c b5dc 123e d0e8 b9be
00000110: 2952 1a3c 3001 0e3a b333 ab3d 4dc1 583e
00000120: 510c 5f3d b9d3 62bd 52d3 81bc 482a d9bb
00000130: b186 af3b 9155 a13c 7b4f 063d 8a1a 243c
00000140: 53b0 90bd 5915 ffbc bb90 adbd ad2f 213d
00000150: f798 c83d 31fc ddbd 80ab 7abd 4078 ee3d
00000160: d4df 14be 52f9 cdbb dac2 45bd f45a b93d
00000170: 0e88 803b 3201 d03c 25bb 833d 643f 313e
00000180: 8c8f 3e3d 0ced efbd 7122 09be 0dc9 04bd
00000190: a4a6 f53d 6011 1e3d 86bf 0abe 1c82 80be
000001a0: 8cc9 b13d e703 293c 28c5 263d 1125 993d
000001b0: 52e5 bdbd e529 bc3d de90 94be faad 7c3c
000001c0: 575c 003d 1b05 843d 9dac a6bd 34c1 9a3d
000001d0: 2bff 673d f118 1abe ff3e c03d f24c 7d3d
000001e0: 3f73 6b3c dd27 893d c755 983c c15c 0ebd
000001f0: 4d97 0bbe 2844 483e d953 343d e7a6 54bd
00000200: b123 dc3a 476d 5a3b 81e7 293d 4c5e 1b3e
00000210: d91a 6fbb 3f37 9ebd 5938 b13c 013f 833e
00000220: a008 f2bc 8cd4 f9bd f344 96bd 193c c33d
00000230: fb7c 753e d084 573d 1baf 753e 5966 d23c
00000240: d805 2c3e 23a2 62bd b9e1 03bd f67f 8d3d
00000250: 8930 923c f1a1 75be e77e 35bd 9806 b9be
00000260: d777 82bd a430 b9bc e226 f5bc d128 80bc
00000270: 2add 9abd dbfa c7be 2d6e f03c a3ed 2b3d
00000280: 1ed0 4e3d e505 e43d 7963 8ebb 9ebb 14be
00000290: 5ac2 36bd 802d 083c 24ed 333e fe9d ae3d
000002a0: a570 15bd 4440 fcbd 6be0 a9bd a96b c03c
000002b0: 7d50 873d fa6f db3c 3fb1 f33c a41c 9e3d
000002c0: 20cd 9fbd 884c 8bbd e430 09bd 1ba1 0cbd
000002d0: 962a 91bc 7264 753c 40c6 c13d dea6 123d
000002e0: 14f7 bc3d 18a0 dd3d 0da9 64be 60c7 30bd
000002f0: 9181 2dbd 77fe 983d ded0 febd b82e cf3c
00000300: 1632 3e3e 6373 8abd eb8e 33bd cb69 593d
00000310: 30fb 58bd 989a 123d c661 88bd 4b83 24bd
00000320: c4d3 923c a7ee ffbc cdb4 183c 1df0 5ebe
00000330: 2da6 c8bd 398f ebbd 9ebd 0c3e 6a86 b33c
00000340: 86bc 913c e7b9 e8bd 7337 a0bd 572e 3ebe
00000350: a840 433d 1100 ecbd 98a8 afbc 48f4 ae3d
00000360: b5fd 46bd f1f1 af3c bb76 13bc a1d6 2dbd
00000370: ade7 ee3d b45b 323c 141b 33be 8bba 29bd
00000380: 606b b43c b940 273e 788a 6c3c 8720 683c
00000390: 7886 88be a6cf 8bbd 9bde ae3c 854d c3bc
000003a0: dd92 44be 12fe 58bd d0c7 16be 8656 09bd
000003b0: 46bd 6b3d 86cb 2a3d dd27 a63d 3a8e 183d
000003c0: a13e 043e 536c cfbd 75f8 4abe 3a85 d6bd
000003d0: 3cf9 093e 89c6 a83d ba6a 963d ac9d e1bb
000003e0: 80a6 043e b0e2 8a38 9ad2 49bd 2811 e23c
000003f0: ad44 89bd ed07 c5bd 37ff f0bd e560 bbbd
0.008903589 0.006801733 -0.11035797 -0.0029063756 0.17355423 -0.0057848203 0.02542449 0.101436526
0.004056618 0.015889505 -0.032553736 -0.11284505 -0.028540103 -0.025211245 0.1831713 -0.26297203
-0.108957395 0.029821927 -0.0040254416 -0.005366547 0.06200137 0.1687848 0.14384344 -0.19303143
0.12572622 -0.0016519962 0.01377798 -0.07251256 -0.016123207 0.20969805 -0.1810448 0.015576978
0.003240901 -0.052231427 0.054642614 0.020813812 0.061485928 0.11856242 -0.21726719 0.027248533
0.09336798 -0.13699901 0.2505662 -0.24057235 -0.01360946 -0.05281797 -0.04726547 -0.07440682
-0.029145926 -0.06811612 0.009244165 -0.20220844 -0.18386658 0.020723788 0.10457922 0.06626897
-0.031968 -0.0025044216 -0.13902222 -0.01564029 -0.1519647 0.08458578 0.20025142 0.14183551
0.1496976 0.011559297 0.14342006 -0.36310434 0.009419003 0.0005417047 0.0835947 0.21167488
0.054455105 -0.055377696 -0.015847836 -0.006627355 0.0053566326 0.019694122 0.032790642 0.010016093
-0.07064881 -0.031138109 -0.08474871 0.039352108 0.09794801 -0.10839117 -0.06119871 0.116440296
-0.14538509 -0.006285825 -0.048281528 0.09050551 0.003922469 0.025391195 0.06432179 0.17309338
0.046523616 -0.11715135 -0.13392045 -0.0324183 0.11994675 0.03859079 -0.13549623 -0.25099266
0.0868102 0.010315872 0.040715367 0.07477773 -0.09272255 0.09187678 -0.29016775 0.015422339
0.031338062 0.06446286 -0.08138392 0.07556382 0.05663983 -0.15048577 0.093870156 0.06184096
0.0143707385 0.066970564 0.01859559 -0.034756426 -0.13631935 0.1955725 0.044025276 -0.051916983
0.0016795305 0.0033329295 0.041480545 0.1517269 -0.0036484508 -0.07725381 0.021633314 0.25634006
-0.029545128 -0.12198743 -0.0733737 0.09532947 0.23973458 0.052616894 0.23992579 0.025683569
0.16799104 -0.055330407 -0.032197688 0.06909172 0.017845409 -0.23987557 -0.044310477 -0.36137843
-0.06370514 -0.022606201 -0.029925767 -0.015644463 -0.07561715 -0.39058575 0.02934941 0.041974675
0.050491445 0.11133937 -0.004345354 -0.14524695 -0.04461894 0.008311629 0.1757093 0.08526228
-0.03648438 -0.12316945 -0.082947575 0.023488836 0.06607149 0.026786793 0.029747603 0.077203065
-0.07802796 -0.068017066 -0.03349389 -0.03433333 -0.017720502 0.014977561 0.09461641 0.03580367
0.09226814 0.10821551 -0.22330113 -0.04315889 -0.042359892 0.0747041 -0.12442182 0.025290832
0.18573794 -0.067602895 -0.04383747 0.053079408 -0.052973926 0.035791963 -0.06659274 -0.040164273
0.017923243 -0.031241728 0.00932045 -0.21771283 -0.097973205 -0.11501927 0.13744208 0.02191468
0.01779009 -0.11363583 -0.07823076 -0.18572365 0.047669083 -0.1152345 -0.021442696 0.08542687
-0.048581798 0.021477671 -0.0090004755 -0.042441014 0.116652824 0.010886122 -0.17490798 -0.041437667
0.022023857 0.16333283 0.01443731 0.014167911 -0.26665092 -0.06826715 0.021346381 -0.023840675
-0.19196649 -0.052976675 -0.1472466 -0.03352978 0.057553552 0.041698 0.08113072 0.037245013
0.12914516 -0.10128083 -0.19821341 -0.1047463 0.13473982 0.082409926 0.07344575 -0.006885251
0.1295414 6.6225766e-05 -0.04927311 0.027596071 -0.06702552 -0.09620652 -0.11767428 -0.091493405

model.2.bias f4 [128]
00000000: e5a0 c63d d1a7 793e 8efa 5fbd 951c c83d
00000010: 18fe 9fbc 8da5 c3bd 9c74 bb3d 2623 ad3d
00000020: 1cc6 16bd c2be e0bc 05d2 49be c307 763e
00000030: 9e82 f03d 7a4f 0ebe 8fa8 90bd 33e7 55be
00000040: 87d4 4dbd 11c0 05bd 2cbb 63bd c250 0abe
00000050: 9419 cebd ebd4 f73d 80bc 9dbe 5659 26be
00000060: 1add d0bd 1ae7 303e 2194 153c 0cc0 ce3b
00000070: 7342 01be 53b6 603d 6027 2abe 5817 383e
00000080: e36c 9c3d a114 81be 604c 80be ce17 67be
00000090: 09ef 293e 9418 333e 40af 1ebd 1def 18bc
000000a0: cdb6 b63e 33f1 79be 1daf 313c 0e4a 7ebe
000000b0: e6c1 08bd 6195 1dbd 3e62 6a3e 4bf4 643e
000000c0: e0e4 adbd 1134 a1bb 6b92 7e3b 199d afbc
000000d0: d78d 7c3d 4d54 853e 67fa 69be 4344 1eba
000000e0: 9415 c9bd 2d85 063c e783 8d3e 00b7 5abe
000000f0: 2f7f 813e 082d 323d d123 153d 9a09 be3e
00000100: cb00 a4bd 3c93 b1bd 70c2 15be d92e 6f3e
00000110: 4c2a 2fbe b2ac e3bc 4f54 57bd d74c b9bd
00000120: dfc6 92bd dcb1 84bc e95e 523e d4fe 3f3e
00000130: 05ea 0abe f1c3 83be 9948 933d eb87 8fbd
00000140: 92d1 3bbe dd59 87bd 0b64 62bd 347a 13bc
00000150: 6cf3 1bbe cae5 1a3c 0253 823d 869a 16bc
00000160: b3f7 c03c 392b 15be ccff 233d 5174 0d3e
00000170: 4795 33be fb15 a3bd a642 85bd d6f4 dbbd
00000180: 3b63 123d 1b2d 713d 44e1 823e a61e 073e
00000190: 19b8 123e 9a3e febd c2b6 23be 0082 44be
000001a0: 2fb2 09be 835e 11bd 7449 24be 9c1a 92bd
000001b0: 8072 9bbe 3576 333e 74da d3bd fa58 b6bd
000001c0: 138e 853d 0453 75be 2613 02be 5c5c f5bd
000001d0: 4f69 513e 1fa9 6fbc afae 09b8 ea12 d0be
000001e0: fa92 9abd b82c 2d3e d1af 05be fcda 61be
000001f0: 2855 75be 2c41 b83d 972d 90be a9dc 9bbe
0.09698657 0.24380423 -0.054682307 0.097710766 -0.019530341 -0.09553061 0.09153101 0.0845397
-0.036810026 -0.02743471 -0.19709022 0.24026398 0.11743663 -0.13897505 -0.070634 -0.20888977
-0.05025151 -0.032653872 -0.055598423 -0.13507369 -0.100634724 0.12101158 -0.30807877 -0.16245016
-0.10198422 0.17275658 0.009129555 0.006309515 -0.12623005 0.054861378 -0.16616583 0.17977655
0.07637956 -0.2521105 -0.2505827 -0.22567675 0.16595091 0.17489845 -0.03874135 -0.009334353
0.3568634 -0.24408416 0.010844973 -0.24832937 -0.03338804 -0.038472537 0.22889039 0.22358815
-0.0849092 -0.004919537 0.0038844596 -0.021437215 0.061658707 0.2604088 -0.22849427 -0.00060373935
-0.09818569 0.0082104625 0.27639696 -0.21358871 0.25292346 0.043499976 0.03641111 0.371167
-0.08007964 -0.08670661 -0.14624953 0.23357715 -0.17105979 -0.027792308 -0.052570637 -0.09047859
-0.07166838 -0.016198091 0.20544018 0.18749553 -0.13565834 -0.2573543 0.07191581 -0.07008346
-0.18341663 -0.06608937 -0.05527119 -0.009001303 -0.15229577 0.0094542 0.06363489 -0.009192115
0.023555612 -0.1456727 0.04003887 0.13813902 -0.17537414 -0.07963177 -0.06506853 -0.10740058
0.035739165 0.058880907 0.2556249 0.13195285 0.1432804 -0.12414284 -0.15987685 -0.19190216
-0.13446878 -0.035490524 -0.16043645 -0.071339816 -0.30360794 0.17525561 -0.10344401 -0.0890369
0.06521239 -0.23957449 -0.12702617 -0.11980507 0.20450328 -0.014627724 -3.2826032e-05 -0.4063943
-0.07547565 0.1691159 -0.1305535 -0.22056192 -0.23958266 0.089968055 -0.28159782 -0.30441788

model.4.weight f4 [10, 128]
00000000: 5a8c bdbd f340 38be d3b4 043d 364f 8d3d
00000010: fb1e 9ebd 4b83 b43d 65a9 fd3d 46a6 10be
00000020: 26ab 05be 7a04 3dbe b28e 683b 17bc 74be
00000030: 7436 c93b ffb6 9cbe 1a5c b43b 7215 39be
00000040: 0d36 26bd 0c2d abbc 2c91 873d 08d9 963d
00000050: a3f9 753e c7df ea3c 119c 19bc b071 7cbe
00000060: af1b 823e 6f70 ca3d e4b7 093c 26bd 113e
00000070: 6768 853d 6b99 83be 81f6 273d 6777 af3c
00000080: 06f4 283e 6d6f d1bd 504c c3bd 3a08 8fbd
00000090: 1dfb 263d 2373 6d3d ee90 adbd 5af6 1a3d
000000a0: 5c5d 8a3d a9b4 da3c 3d12 173d 3b0e 8ebe
000000b0: 5f7e 17bd e5d3 a0be 2d24 86bd eb95 22be
000000c0: 6d0d 103e 6773 803c 4955 c23d 9e75 53bd
000000d0: 801c f9bb c788 86bd 0116 03bd ab9b cb3d
000000e0: 5a34 063e 343b ad3d 4f46 033d c7ea b5be
000000f0: ee97 46bc f710 b4be ea09 5fbe e33c 99be
00000100: fe80 febc e045 41be e776 593c 1f41 eabd
00000110: 5d32 1fbe b870 1a3e 1d94 163e d97b f03d
00000120: 0c23 bdbd 81a4 8b3d a4c2 ce3d c15f 173d
00000130: 4fe1 f23c 1dbd ab3d 49ce 27be 3dcd ffbb
00000140: 8c1d 8bbe c445 d6bc 34ac ce3d 99fc ccbd
00000150: fa66 1cbd d557 02bd cf4f 80bd 51cc 04be
00000160: f5b2 40be 28a2 a3bc 67bd 5e3d 7100 e5bd
00000170: ee7a 223e 8e90 3d3d 2b2a 453e 37c3 1abe
00000180: 30cb 9b3d bf7a c73d 21fb 143e bdd6 d6be
00000190: ad70 7ebe f917 173e 2116 163e 13f7 00bd
000001a0: 236e 5abd 8f73 193d 4f45 01be f471 8abe
000001b0: 77f3 d03d 9939 0f3e 4af8 a83d 54c3 9abe
000001c0: 0753 8fbe 4e45 443e 722a 5fbe ac82 2d3d
000001d0: cb96 253e 46cd 9bbd de09 edbd 09ab b2be
000001e0: dc50 c4be c88d ac3c 0dad cc3c 2ff1 59be
000001f0: b309 8bbe b669 8bbe f4bb 51be 3305 f43c
00000200: b6d5 07bc 480a 0dbe 5d37 8ebe d03a dcbd
00000210: 4f4d 9dbd f175 1c3d 07ea ffbd 2d58 b0bc
00000220: 07bb 8f3d c56a 85bd fa09 26be 3061 8cbe
00000230: 0fc0 a43d bd3b af3d c2c8 73ba 1f1c cf3d
00000240: 9592 a43d 7306 2bbd 97da 89be 5223 d8bd
00000250: 9222 d4bd e1f5 a9be c802 b43d be80 223e
00000260: 5f3b c7bd c1d7 12bd de93 3e3d bfcf f5bd
00000270: dfd1 1b3d 2087 c6be 1b01 a23d ac83 11be
00000280: c89c c9be 6c74 1d3e 69af 0b3e 827f 293e
00000290: 151d d83d d70e e0bd 1794 adbd 2b12 bdbe
000002a0: 6183 9a3d 025c 0c3c 5293 b8bd 7e4a 2cbe
000002b0: 8911 7dbe e345 a03d a337 2abc 246c a43c
000002c0: 76cb 44be 5c2c 65be 5e67 94be 993b a6be
000002d0: 5574 f13d 2aad b8be 11d6 853b 6c41 04be
000002e0: 3408 4dbe 7c92 89be 4cff 243d 5352 ac3d
000002f0: 9787 bebd 09c3 383d d1f2 65be 7f96 69be
00000300: c011 943d 03c1 73be e24a 9dbe 9e67 493d
00000310: 060d 48be 0a0a 7bbe 7928 86be a90b c83d
00000320: e09a 5a3d c08d 0fbe e3da e1bd e09e 74bd
00000330: b669 753c 91ad 79bd 0c64 ebbc 4daf 42be
00000340: 0140 313d b057 38be 14f3 6abe 622d 603c
00000350: ae2e af3d 9179 373e 3d3d aa3d d831 c43d
00000360: c97c 153d 5a6e 3f3d 01c9 3fbe d5cd 52be
00000370: 05bc 89bb 4bd3 dfbe 5656 773d 5a8a 80be
00000380: d863 41be 38c3 4cbd 628c 1ebe 39b7 36bc
00000390: d95f dd3d 7ce9 70be 2dfd fcbd 3053 29be
000003a0: 50ea 0b3c 5b4a 25be 0d76 a73e b056 9f3d
000003b0: 8eac 143e c594 d83d f1bd b33d 89f4 70be
000003c0: 14fa 423d ac7e 72be 7e00 a43d 1332 febd
000003d0: ff2c b63d 9492 27bd c89c c8be 7739 f03d
000003e0: 2f4d 71be 411e df3d 5485 19be 6db9 1e3e
000003f0: 52f1 683c c3fd 9b3d e8aa 3f3e 2d6a d93d
-0.092552856 -0.17993526 0.03239901 0.06899874 -0.07720753 0.08814105 0.12385825 -0.14125928
-0.13053569 -0.18458739 0.0035485444 -0.23899876 0.0061405245 -0.30608365 0.0055041434 -0.18074587
-0.04057889 -0.020895503 0.06619486 0.07365614 0.2402101 0.028671158 -0.009375588 -0.24652743
0.25411746 0.09884726 0.008405659 0.1423231 0.06514054 -0.25702986 0.04100657 0.02141924
0.16499338 -0.10226331 -0.0953604 -0.06983991 0.040766824 0.05797113 -0.08474909 0.037832595
0.06756088 0.026697474 0.036882628 -0.27745232 -0.03698575 -0.31411663 -0.06549869 -0.15877502
0.14067622 0.015680028 0.09488923 -0.05162584 -0.0076022744 -0.06569057 -0.032003406 0.09941801
0.13105908 0.08458558 0.032049473 -0.35530683 -0.012121184 -0.35169193 -0.21781126 -0.29929265
-0.031067368 -0.18874311 0.013272977 -0.11438202 -0.15546556 0.15082061 0.14704938 0.11742372
-0.092352 0.06818486 0.100957185 0.036956552 0.029648451 0.0838568 -0.16387285 -0.0078064487
-0.2717098 -0.026156314 0.10091439 -0.10009117 -0.038184144 -0.031822044 -0.06265222 -0.12968566
-0.18818267 -0.019974783 0.054379847 -0.11181725 0.15867206 0.046280436 0.19254367 -0.15113531
0.07607114 0.09740209 0.14548923 -0.41960707 -0.2484767 0.14755239 0.14656879 -0.03148563
-0.05332769 0.03746372 -0.12624095 -0.27040064 0.10202687 0.13986816 0.082504824 -0.3022715
-0.27993032 0.19167063 -0.21793535 0.042360947 0.16170804 -0.07607512 -0.11574148 -0.34896114
-0.3834294 0.0210637 0.02498486 -0.2128341 -0.27155837 -0.2722909 -0.20481855 0.029787635
-0.008290699 -0.13773453 -0.27776614 -0.10753405 -0.07680761 0.038198415 -0.12495809 -0.02152642
0.070180945 -0.06514505 -0.16214743 -0.27417898 0.08044445 0.08556316 -0.00092996296 0.101127855
0.08035771 -0.041754197 -0.26924583 -0.10553612 -0.10358156 -0.33195403 0.08789593 0.15869424
-0.09728121 -0.03585029 0.046527736 -0.12002515 0.038041946 -0.38774967 0.07910367 -0.14210385
-0.39377427 0.15376443 0.13641132 0.16552547 0.10552422 -0.109403305 -0.084755115 -0.36927924
0.0754459 0.008566858 -0.09012474 -0.16825292 -0.2471372 0.0782583 -0.010389241 0.020071097
-0.19218239 -0.22380203 -0.28985113 -0.32467344 0.11789767 -0.36069614 0.0040843566 -0.12915581
-0.2002266 -0.2686957 0.040282533 0.084141396 -0.093032055 0.045107875 -0.22455908 -0.22811316
0.07229948 -0.23804097 -0.30721194 0.049171083 -0.19536218 -0.24515548 -0.26202753 0.09767849
0.053370357 -0.14018917 -0.110280775 -0.059721828 0.014978817 -0.06095654 -0.02873423 -0.19012184
0.04327393 -0.180022 -0.2294429 0.013682695 0.08553825 0.17917468 0.083124615 0.095798194
0.036495958 0.0467361 -0.1872902 -0.20586331 -0.004203322 -0.4371589 0.06038507 -0.25105554
-0.18885744 -0.049990863 -0.1548324 -0.011152082 0.10809297 -0.23526567 -0.12352977 -0.1653564
0.008539751 -0.16141646 0.32707253 0.07780206 0.1451895 0.105752505 0.08776463 -0.23530783
0.047601774 -0.23681134 0.080079064 -0.12411895 0.08895301 -0.040911272 -0.39182115 0.117297105
-0.235646 0.10894442 -0.14992267 0.15500422 0.0142176915 0.076167606 0.1871754 0.106159545

model.4.bias f4 [10]
00000000: 6611 0abe d363 6dbe 4bd8 93bd bf04 003d
00000010: 4a2e c13d b060 39be b005 8ebc 10d4 82be
00000020: e4c6 ec3e e910 583e
-0.134832 -0.23182611 -0.07218989 0.031254526 0.09432657 -0.1810329 -0.017336696 -0.25552416
0.46245492 0.211002
