MLP_bitflip/mnist_mlp_quantized.pth (torch, 943781 bytes, 6 tensors)

fc1.weight f4 [256, 784]
0.028158257 0.028158257 -0.008045216 0.032180864 -0.008045216 0.008045216 -0.016090432 0.02011304
0.032180864 -0.02413565 0.032180864 0.008045216 0.02413565 0.004022608 0.016090432 -0.004022608
0.028158257 0.004022608 -0.016090432 0.008045216 -0.016090432 -0.004022608 -0.012067825 0.02413565
-0.028158257 -0.016090432 -0.008045216 -0.02011304 0.004022608 -0.032180864 0.032180864 -0.028158257
0.028158257 0.008045216 -0.008045216 0.02413565 0.008045216 0.028158257 0.004022608 -0.008045216
0.012067825 -0.004022608 0.016090432 0.032180864 0.02011304 -0.012067825 0.02011304 0.008045216
0.02011304 -0.02011304 -0.032180864 -0.012067825 -0.02413565 0.028158257 0.012067825 0.016090432
0.012067825 -0.0 0.028158257 -0.02413565 0.004022608 -0.02413565 0.012067825 -0.008045216
0.016090432 0.004022608 0.04424869 -0.004022608 -0.004022608 -0.008045216 0.0482713 0.02413565
0.0482713 -0.012067825 -0.02413565 -0.016090432 -0.012067825 0.02413565 0.02011304 0.032180864
-0.016090432 -0.02413565 0.02011304 -0.012067825 0.02011304 -0.008045216 0.02011304 -0.02413565
-0.016090432 0.012067825 0.016090432 -0.0 0.028158257 0.0482713 0.004022608 0.012067825
0.04424869 -0.004022608 -0.0 -0.032180864 -0.004022608 0.02413565 0.004022608 -0.004022608
0.012067825 -0.008045216 -0.02011304 -0.004022608 -0.02011304 -0.02011304 0.036203474 0.008045216
0.012067825 -0.032180864 -0.02413565 -0.012067825 0.004022608 -0.02413565 -0.008045216 -0.016090432
0.012067825 0.02413565 0.04022608 -0.004022608 -0.02011304 -0.04424869 -0.04424869 -0.06033912
0.008045216 -0.008045216 0.016090432 0.004022608 -0.032180864 0.02011304 -0.02011304 -0.012067825
-0.032180864 -0.032180864 0.012067825 -0.008045216 0.012067825 -0.028158257 0.02413565 -0.02413565
0.0 0.016090432 0.028158257 0.032180864 0.06436173 0.008045216 0.02413565 -0.032180864
-0.032180864 -0.07642955 0.012067825 -0.02413565 0.02011304 -0.008045216 -0.02413565 -0.056316514
0.004022608 -0.012067825 -0.012067825 -0.032180864 0.012067825 -0.004022608 -0.016090432 0.028158257
0.008045216 -0.02011304 -0.016090432 0.0 0.02413565 -0.0 -0.012067825 -0.008045216
-0.016090432 0.012067825 -0.012067825 -0.08045216 -0.052293904 -0.036203474 -0.012067825 0.008045216
0.004022608 -0.032180864 -0.052293904 -0.056316514 -0.07240695 -0.04022608 -0.032180864 -0.02011304
0.02011304 0.032180864 -0.004022608 -0.008045216 0.0 -0.0 0.008045216 0.008045216
-0.028158257 -0.012067825 0.028158257 0.02011304 -0.004022608 -0.0482713 -0.068384334 -0.07240695
-0.056316514 -0.02413565 0.02413565 0.012067825 -0.07642955 -0.06033912 -0.056316514 -0.04022608
-0.056316514 -0.068384334 -0.028158257 -0.04424869 -0.02413565 0.028158257 -0.016090432 -0.008045216
-0.032180864 0.02413565 0.028158257 0.012067825 -0.02011304 -0.028158257 -0.02413565 0.028158257
-0.004022608 -0.004022608 -0.016090432 -0.04022608 -0.06033912 -0.032180864 -0.004022608 -0.02413565
-0.02413565 -0.06436173 -0.0482713 -0.07240695 -0.04022608 -0.06436173 -0.06033912 -0.016090432
-0.02413565 0.012067825 -0.016090432 -0.02413565 -0.004022608 -0.016090432 -0.008045216 -0.032180864
00000000: 25ac e63c 25ac e63c 15d0 03bc 15d0 033d
00000010: 15d0 03bc 15d0 033c 15d0 83bc 1ac4 a43c
00000020: 15d0 033d 20b8 c5bc 15d0 033d 15d0 033c
00000030: 20b8 c53c 15d0 833b 15d0 833c 15d0 83bb
00000040: 25ac e63c 15d0 833b 15d0 83bc 15d0 033c
00000050: 15d0 83bc 15d0 83bb 20b8 45bc 20b8 c53c
00000060: 25ac e6bc 15d0 83bc 15d0 03bc 1ac4 a4bc
00000070: 15d0 833b 15d0 03bd 15d0 033d 25ac e6bc
00000080: 25ac e63c 15d0 033c 15d0 03bc 20b8 c53c
00000090: 15d0 033c 25ac e63c 15d0 833b 15d0 03bc
000000a0: 20b8 453c 15d0 83bb 15d0 833c 15d0 033d
000000b0: 1ac4 a43c 20b8 45bc 1ac4 a43c 15d0 033c
000000c0: 1ac4 a43c 1ac4 a4bc 15d0 03bd 20b8 45bc
000000d0: 20b8 c5bc 25ac e63c 20b8 453c 15d0 833c
000000e0: 20b8 453c 0000 0080 25ac e63c 20b8 c5bc
000000f0: 15d0 833b 20b8 c5bc 20b8 453c 15d0 03bc
00000100: 15d0 833c 15d0 833b 1d3e 353d 15d0 83bb
00000110: 15d0 83bb 15d0 03bc 20b8 453d 20b8 c53c
00000120: 20b8 453d 20b8 45bc 20b8 c5bc 15d0 83bc
00000130: 20b8 45bc 20b8 c53c 1ac4 a43c 15d0 033d
00000140: 15d0 83bc 20b8 c5bc 1ac4 a43c 20b8 45bc
00000150: 1ac4 a43c 15d0 03bc 1ac4 a43c 20b8 c5bc
00000160: 15d0 83bc 20b8 453c 15d0 833c 0000 0080
00000170: 25ac e63c 20b8 453d 15d0 833b 20b8 453c
00000180: 1d3e 353d 15d0 83bb 0000 0080 15d0 03bd
00000190: 15d0 83bb 20b8 c53c 15d0 833b 15d0 83bb
000001a0: 20b8 453c 15d0 03bc 1ac4 a4bc 15d0 83bb
000001b0: 1ac4 a4bc 1ac4 a4bc 184a 143d 15d0 033c
000001c0: 20b8 453c 15d0 03bd 20b8 c5bc 20b8 45bc
000001d0: 15d0 833b 20b8 c5bc 15d0 03bc 15d0 83bc
000001e0: 20b8 453c 20b8 c53c 1ac4 243d 15d0 83bb
000001f0: 1ac4 a4bc 1d3e 35bd 1d3e 35bd 2726 77bd
00000200: 15d0 033c 15d0 03bc 15d0 833c 15d0 833b
00000210: 15d0 03bd 1ac4 a43c 1ac4 a4bc 20b8 45bc
00000220: 15d0 03bd 15d0 03bd 20b8 453c 15d0 03bc
00000230: 20b8 453c 25ac e6bc 20b8 c53c 20b8 c5bc
00000240: 0000 0000 15d0 833c 25ac e63c 15d0 033d
00000250: 15d0 833d 15d0 033c 20b8 c53c 15d0 03bd
00000260: 15d0 03bd 1987 9cbd 20b8 453c 20b8 c5bc
00000270: 1ac4 a43c 15d0 03bc 20b8 c5bc 25ac 66bd
00000280: 15d0 833b 20b8 45bc 20b8 45bc 15d0 03bd
00000290: 20b8 453c 15d0 83bb 15d0 83bc 25ac e63c
000002a0: 15d0 033c 1ac4 a4bc 15d0 83bc 0000 0000
000002b0: 20b8 c53c 0000 0080 20b8 45bc 15d0 03bc
000002c0: 15d0 83bc 20b8 453c 20b8 45bc 1ac4 a4bd
000002d0: 2232 56bd 184a 14bd 20b8 45bc 15d0 033c
000002e0: 15d0 833b 15d0 03bd 2232 56bd 25ac 66bd
000002f0: 184a 94bd 1ac4 24bd 15d0 03bd 1ac4 a4bc
00000300: 1ac4 a43c 15d0 033d 15d0 83bb 15d0 03bc
00000310: 0000 0000 0000 0080 15d0 033c 15d0 033c
00000320: 25ac e6bc 20b8 45bc 25ac e63c 1ac4 a43c
00000330: 15d0 83bb 20b8 45bd 160d 8cbd 184a 94bd
00000340: 25ac 66bd 20b8 c5bc 20b8 c53c 20b8 453c
00000350: 1987 9cbd 2726 77bd 25ac 66bd 1ac4 24bd
00000360: 25ac 66bd 160d 8cbd 25ac e6bc 1d3e 35bd
00000370: 20b8 c5bc 25ac e63c 15d0 83bc 15d0 03bc
00000380: 15d0 03bd 20b8 c53c 25ac e63c 20b8 453c
00000390: 1ac4 a4bc 25ac e6bc 20b8 c5bc 25ac e63c
000003a0: 15d0 83bb 15d0 83bb 15d0 83bc 1ac4 24bd
000003b0: 2726 77bd 15d0 03bd 15d0 83bb 20b8 c5bc
000003c0: 20b8 c5bc 15d0 83bd 20b8 45bd 184a 94bd
000003d0: 1ac4 24bd 15d0 83bd 2726 77bd 15d0 83bc
000003e0: 20b8 c5bc 20b8 453c 15d0 83bc 20b8 c5bc
000003f0: 15d0 83bb 15d0 83bc 15d0 03bc 15d0 03bd

fc1.bias f4 [256]
0.019067725 -0.008400485 0.0322764 0.0036303974 -0.0311388 -0.019269828 -0.011191657 -0.040553223
-0.005786711 0.02921649 -0.03395652 -0.008035147 0.008018204 0.018586291 0.033119865 -0.005122701
0.0004433893 0.011698826 0.022365417 -0.018479602 0.027893033 0.027793601 0.007633902 0.022643639
-0.017347444 0.005103653 0.010141182 0.037080407 0.0027240654 -0.010669842 0.022029847 -0.0059214183
-0.01711999 0.021403309 -0.04458712 0.030021952 -0.016470185 0.028180977 -0.01897592 0.025819013
0.019726973 0.040579762 0.012043779 0.030627673 0.015316227 -0.01603502 0.033550862 0.0290077
-0.027224304 0.0048421463 -0.010594541 0.027953643 0.018927278 0.022191513 -0.015859907 0.021955343
0.003745945 0.024954846 0.018041003 -0.03691156 0.01582361 0.014086738 -0.009970908 -0.03400851
-0.012717068 -0.0017447409 -0.015721185 -0.0011555211 0.0027261106 0.00017579664 0.009618612 -0.01843692
0.019067593 0.02164405 -0.026291836 0.0031430814 -0.004566493 -0.019469336 -0.030990807 -0.02226621
-0.022102447 0.011354758 0.009009302 0.034506757 -0.025738722 0.013211695 -0.01732389 -0.024197882
-0.0025695644 0.013474418 0.021800747 -0.014431974 0.027062254 -0.0236125 0.012865701 -0.01532118
-0.038639136 0.03375333 -0.013216855 0.0011940475 0.00911693 -0.020671504 -0.019036982 0.016632639
0.0008986138 -0.017447961 -0.0017857475 -0.03307111 -0.0028625256 -0.0012911643 -0.04138186 -0.014590088
0.019216293 -0.043706708 -0.017397976 0.009194074 -0.020214044 -0.031293716 -0.033808786 0.005407008
0.023884455 0.015097804 0.038589675 -0.009418088 -0.007097096 0.03401117 -0.013220021 0.027010506
0.03176598 -0.033062153 -0.0066232937 0.029172804 0.032115042 -0.021945091 0.031298954 0.015271406
0.019355902 0.015810542 -0.0016691859 -0.0014880507 -0.027592473 0.023165952 -0.011203119 -0.026770791
-0.017593428 -0.012541055 0.0052119996 -0.024868486 -0.0032630279 -0.0014114351 -0.012221535 -0.0017660373
0.008868616 0.0017257027 -0.025653826 0.0057850275 0.004484784 0.008558108 0.005218184 0.01315341
-0.020254418 -0.014646008 -0.0015197541 -0.012448973 0.03884812 -0.032871727 -0.004410893 0.008718263
-0.015663154 0.0027004296 -0.017614702 -0.022863265 -0.025709936 0.016008923 0.016813496 0.004621801
-0.026059445 -0.019557826 0.02707551 -0.0117371585 -0.0118558435 0.02386383 -0.011500321 -0.0018922074
-0.019552942 -0.033268172 0.02512048 -0.009971665 0.034560848 0.01654979 0.030467296 -0.050116196
0.03799421 0.004723076 -0.0149949845 -0.05110454 -0.018846365 0.014501289 0.031436186 -0.014115706
0.022832545 -0.027239481 -0.026460258 0.028080577 -0.01962452 0.023416221 0.021393776 0.008450723
-0.008834878 0.026686195 -0.030397499 0.033965204 -0.0027866568 0.011832176 0.0039004446 -0.0050893244
0.012555083 0.0027306855 -0.019864706 0.029332811 -0.016445942 0.0016010029 0.014553638 -0.023485417
-0.030420663 -0.026483178 0.014455491 0.031589642 -0.039045222 0.014578262 -0.00096073904 0.027678514
0.016672136 -0.0002816887 0.035561312 0.023784114 0.0044118892 -0.014528214 -0.05674031 -0.0095761465
-0.018895125 -0.0037826914 -0.027676832 0.016506422 -0.03136579 -0.011690281 -0.015298927 0.005135973
-0.01795124 0.029851899 -0.01139793 0.017769527 0.016648043 0.033632502 0.0040728585 -0.00493194
00000000: eb33 9c3c 30a2 09bc 4234 043d f6eb 6d3b
00000010: cc16 ffbc c2db 9dbc 365d 37bc 231b 26bd
00000020: 739e bdbb 6c57 ef3c fe15 0bbd d9a5 03bc
00000030: c95e 033c 4742 983c b2a8 073d 55dc a7bb
00000040: b476 e839 6fac 3f3c ae37 b73c 8962 97bc
00000050: ee7f e43c 68af e33c d025 fa3b 277f b93c
00000060: 3a1c 8ebc 8b3c a73b 3327 263c a0e1 173d
00000070: 3c86 323b 90d0 2ebc f077 b43c 7508 c2bb
00000080: 393f 8cbc fe55 af3c fca0 36bd 99f0 f53c
00000090: 7bec 86bc cbdb e63c 6373 9bbc 6582 d33c
000000a0: 769a a13c f736 263d 4553 453c e3e6 fa3c
000000b0: eaf0 7a3c e05b 83bc a16c 093d 8ea1 ed3c
000000c0: 8105 dfbc deaa 9e3b ba94 2dbc 0aff e43c
000000d0: 610d 9b3c faca b53c a3ec 81bc b1db b33c
000000e0: 877e 753b 1b6e cc3c baca 933c 9330 17bd
000000f0: 84a0 813c 10cc 663c 055d 23bc 824c 0bbd
00000100: 405b 50bc caaf e4ba b7c9 80bc db74 97ba
00000110: 8ca8 323b 0d56 3839 6297 1d3c 0609 97bc
00000120: a433 9c3c dd4e b13c fa61 d7bc 28fc 4d3b
00000130: 85a2 95bb 287e 9fbc 6fe0 fdbc a067 b6bc
00000140: 3110 b5bc 4f09 3a3c c09b 133c f556 0d3d
00000150: 03da d2bc dd75 583c d5ea 8dbc a33a c6bc
00000160: 2366 28bb cec3 5c3c 7b97 b23c 1674 6cbc
00000170: a9b1 dd3c 006f c1bc a9ca 523c b005 7bbc
00000180: 1244 1ebd ef40 0a3d 828b 58bc 9681 9c3a
00000190: 2d5f 153c 4957 a9bc 72f3 9bbc 2c41 883c
000001a0: f490 6b3a 07ef 8ebc be0f eaba 9275 07bd
000001b0: 3699 3bbb 493c a9ba 0680 29bd 440b 6fbc
000001c0: 7d6b 9d3c ce05 33bd 3386 8ebc bea2 163c
000001d0: ec97 a5bc d72d 00bd 157b 0abd 452d b13b
000001e0: 55a9 c33c c85c 773c 3510 1e3d 534e 1abc
000001f0: c28e e8bb 4c4f 0b3d c998 58bc 2345 dd3c
00000200: 0b1d 023d 2e6c 07bd 3708 d9bb cefb ee3c
00000210: 108b 033d 31c6 b3bc 5533 003d eb34 7a3c
00000220: 4590 9e3c 1c85 813c 96c8 daba b20a c3ba
00000230: 9c09 e2bc 86c6 bd3c 498d 37bc 6b4e dbbc
00000240: 1820 90bc ff78 4dbc 6cc9 aa3b ffb8 cbbc
00000250: 86d8 55bb e7ff b8ba d53c 48bc 617a e7ba
00000260: ac4d 113c f930 e23a f927 d2bc 5490 bd3b
00000270: 18f5 923b 4e37 0c3c 4dfd aa3b 6681 573c
00000280: 98ec a5bc cff5 6fbc 7c32 c7ba c7f6 4bbc
00000290: 351f 1f3d 81a4 06bd 4189 90bb 0cd7 0e3c
000002a0: 0450 80bc b1f9 303b b54c 90bc be4b bbbc
000002b0: a59d d2bc 2525 833c 75bc 893c 7a72 973b
000002c0: 9e7a d5bc bc37 a0bc 76cd dd3c 364d 40bc
000002d0: 033f 42bc 147e c33c d86b 3cbc f203 f8ba
000002e0: 7e2d a0bc 3544 08bd 77c9 cd3c 3260 23bc
000002f0: ad8f 0d3d 6d93 873c 8d96 f93c a446 4dbd
00000300: d19f 1b3d 08c4 9a3b 86ad 75bc fe52 51bd
00000310: b163 9abc d196 6d3c 3bc3 003d 9045 67bc
00000320: 510b bb3c 5525 dfbc 2fc3 d8bc 3d09 e63c
00000330: 9ac3 a0bc 60d3 bf3c 0042 af3c e774 0a3c
00000340: 2ac0 10bc 029d da3c 2d04 f9bc 191f 0b3d
00000350: 58a0 36bb bedb 413c 9a9e 7f3b 59c4 a6bb
00000360: d6b3 4d3c 4df5 323b 4fbb a2bc 5d4b f03c
00000370: a4b9 86bc bed8 d13a 6272 6e3c 7d64 c0bc
00000380: c134 f9bc 40f3 d8bc b9d6 6c3c 2464 013d
00000390: e2ed 1fbd aad9 6e3c 1bda 7bba 0dbe e23c
000003a0: 0194 883c 9eaf 93b9 bda8 113d e7d6 c23c
000003b0: 9c91 903b bf07 6ebc 8768 68bd 45e5 1cbc
000003c0: f3c9 9abc 08e7 77bb 86ba e2bc 7a38 873c
000003d0: 6a79 00bd 9888 3fbc 5aa8 7abc aa4b a83b
000003e0: 7b0e 93bc f88b f43c 62be 3abc 6691 913c
000003f0: 7a61 883c 3cc2 093d 9d75 853b 1d9c a1bb

fc2.weight f4 [128, 256]
-0.02413565 0.0 -0.0482713 0.0 0.12067824 -0.056316514 -0.008045216 0.07240695
-0.02413565 -0.012067825 -0.07642955 -0.008045216 0.056316514 -0.032180864 0.108610414 -0.12067824
-0.016090432 -0.04022608 0.02413565 0.02413565 0.056316514 0.08447477 -0.004022608 -0.016090432
0.056316514 0.004022608 0.04022608 -0.06033912 -0.028158257 0.1488365 -0.0482713 0.0
0.02011304 0.02011304 0.036203474 -0.016090432 0.056316514 0.052293904 -0.10458781 0.052293904
0.068384334 -0.004022608 0.08849738 -0.032180864 -0.016090432 0.06436173 0.0482713 -0.0482713
-0.07240695 0.012067825 -0.008045216 0.056316514 0.02011304 -0.032180864 0.04022608 0.028158257
0.04424869 -0.07240695 0.028158257 0.036203474 -0.08045216 0.068384334 0.02011304 0.07240695
0.0482713 -0.068384334 0.056316514 -0.032180864 -0.08849738 0.02011304 0.06033912 0.108610414
-0.032180864 -0.06033912 -0.016090432 0.068384334 0.012067825 -0.02413565 -0.016090432 0.016090432
-0.004022608 0.036203474 0.0 0.032180864 0.016090432 -0.032180864 0.008045216 0.08849738
-0.012067825 0.06436173 -0.07240695 0.07642955 -0.0 0.008045216 0.0482713 0.068384334
0.0482713 0.06033912 -0.052293904 -0.028158257 0.02413565 -0.04424869 -0.0482713 -0.06436173
0.028158257 -0.016090432 0.06033912 0.068384334 0.012067825 0.028158257 -0.08447477 -0.06033912
0.012067825 0.0965426 -0.052293904 -0.036203474 0.0 -0.07642955 -0.06033912 0.02413565
0.028158257 -0.0 -0.004022608 -0.032180864 -0.016090432 0.07240695 -0.012067825 -0.04424869
0.016090432 -0.004022608 0.07642955 0.02011304 -0.028158257 0.04424869 0.032180864 0.0482713
0.004022608 -0.036203474 -0.056316514 0.06436173 0.08849738 0.02413565 0.09251998 0.028158257
0.016090432 -0.04022608 0.016090432 -0.028158257 0.04022608 0.02413565 -0.012067825 -0.14079128
-0.008045216 -0.028158257 -0.016090432 0.004022608 0.08447477 -0.10458781 -0.004022608 0.052293904
0.04022608 0.07642955 0.016090432 -0.056316514 -0.004022608 -0.02011304 0.08045216 0.036203474
0.008045216 -0.068384334 -0.036203474 -0.02011304 0.004022608 0.036203474 0.036203474 0.052293904
-0.032180864 -0.028158257 0.004022608 -0.056316514 0.008045216 0.09251998 0.06033912 0.016090432
-0.10458781 0.012067825 0.016090432 0.052293904 -0.0482713 0.032180864 -0.04424869 -0.016090432
0.0965426 -0.11665563 0.06436173 0.04424869 0.04022608 0.07642955 -0.0 -0.052293904
0.012067825 -0.02011304 0.056316514 -0.06436173 0.02011304 -0.1005652 0.09251998 0.06033912
0.0482713 0.0 0.04424869 -0.004022608 0.012067825 -0.02011304 -0.016090432 0.004022608
0.07642955 0.04424869 -0.07642955 -0.012067825 0.04022608 0.0482713 0.02413565 0.008045216
0.012067825 0.04424869 -0.012067825 0.056316514 -0.08045216 -0.0 -0.004022608 0.032180864
-0.0482713 0.036203474 0.004022608 -0.06436173 -0.052293904 0.0 0.04022608 -0.02011304
0.08045216 -0.032180864 -0.06436173 0.008045216 -0.02011304 0.008045216 -0.02011304 0.0482713
0.032180864 -0.004022608 -0.068384334 0.028158257 -0.02011304 -0.06033912 -0.036203474 -0.052293904
00000000: 20b8 c5bc 0000 0000 20b8 45bd 0000 0000
00000010: 2726 f73d 25ac 66bd 15d0 03bc 184a 943d
00000020: 20b8 c5bc 20b8 45bc 1987 9cbd 15d0 03bc
00000030: 25ac 663d 15d0 03bd 236f de3d 2726 f7bd
00000040: 15d0 83bc 1ac4 24bd 20b8 c53c 20b8 c53c
00000050: 25ac 663d 1c01 ad3d 15d0 83bb 15d0 83bc
00000060: 25ac 663d 15d0 833b 1ac4 243d 2726 77bd
00000070: 25ac e6bc 9868 183e 20b8 45bd 0000 0000
00000080: 1ac4 a43c 1ac4 a43c 184a 143d 15d0 83bc
00000090: 25ac 663d 2232 563d 2232 d6bd 2232 563d
000000a0: 160d 8c3d 15d0 83bb 1d3e b53d 15d0 03bd
000000b0: 15d0 83bc 15d0 833d 20b8 453d 20b8 45bd
000000c0: 184a 94bd 20b8 453c 15d0 03bc 25ac 663d
000000d0: 1ac4 a43c 15d0 03bd 1ac4 243d 25ac e63c
000000e0: 1d3e 353d 184a 94bd 25ac e63c 184a 143d
000000f0: 1ac4 a4bd 160d 8c3d 1ac4 a43c 184a 943d
00000100: 20b8 453d 160d 8cbd 25ac 663d 15d0 03bd
00000110: 1d3e b5bd 1ac4 a43c 2726 773d 236f de3d
00000120: 15d0 03bd 2726 77bd 15d0 83bc 160d 8c3d
00000130: 20b8 453c 20b8 c5bc 15d0 83bc 15d0 833c
00000140: 15d0 83bb 184a 143d 0000 0000 15d0 033d
00000150: 15d0 833c 15d0 03bd 15d0 033c 1d3e b53d
00000160: 20b8 45bc 15d0 833d 184a 94bd 1987 9c3d
00000170: 0000 0080 15d0 033c 20b8 453d 160d 8c3d
00000180: 20b8 453d 2726 773d 2232 56bd 25ac e6bc
00000190: 20b8 c53c 1d3e 35bd 20b8 45bd 15d0 83bd
000001a0: 25ac e63c 15d0 83bc 2726 773d 160d 8c3d
000001b0: 20b8 453c 25ac e63c 1c01 adbd 2726 77bd
000001c0: 20b8 453c 20b8 c53d 2232 56bd 184a 14bd
000001d0: 0000 0000 1987 9cbd 2726 77bd 20b8 c53c
000001e0: 25ac e63c 0000 0080 15d0 83bb 15d0 03bd
000001f0: 15d0 83bc 184a 943d 20b8 45bc 1d3e 35bd
00000200: 15d0 833c 15d0 83bb 1987 9c3d 1ac4 a43c
00000210: 25ac e6bc 1d3e 353d 15d0 033d 20b8 453d
00000220: 15d0 833b 184a 14bd 25ac 66bd 15d0 833d
00000230: 1d3e b53d 20b8 c53c 1e7b bd3d 25ac e63c
00000240: 15d0 833c 1ac4 24bd 15d0 833c 25ac e6bc
00000250: 1ac4 243d 20b8 c53c 20b8 45bc 972b 10be
00000260: 15d0 03bc 25ac e6bc 15d0 83bc 15d0 833b
00000270: 1c01 ad3d 2232 d6bd 15d0 83bb 2232 563d
00000280: 1ac4 243d 1987 9c3d 15d0 833c 25ac 66bd
00000290: 15d0 83bb 1ac4 a4bc 1ac4 a43d 184a 143d
000002a0: 15d0 033c 160d 8cbd 184a 14bd 1ac4 a4bc
000002b0: 15d0 833b 184a 143d 184a 143d 2232 563d
000002c0: 15d0 03bd 25ac e6bc 15d0 833b 25ac 66bd
000002d0: 15d0 033c 1e7b bd3d 2726 773d 15d0 833c
000002e0: 2232 d6bd 20b8 453c 15d0 833c 2232 563d
000002f0: 20b8 45bd 15d0 033d 1d3e 35bd 15d0 83bc
00000300: 20b8 c53d 26e9 eebd 15d0 833d 1d3e 353d
00000310: 1ac4 243d 1987 9c3d 0000 0080 2232 56bd
00000320: 20b8 453c 1ac4 a4bc 25ac 663d 15d0 83bd
00000330: 1ac4 a43c 21f5 cdbd 1e7b bd3d 2726 773d
00000340: 20b8 453d 0000 0000 1d3e 353d 15d0 83bb
00000350: 20b8 453c 1ac4 a4bc 15d0 83bc 15d0 833b
00000360: 1987 9c3d 1d3e 353d 1987 9cbd 20b8 45bc
00000370: 1ac4 243d 20b8 453d 20b8 c53c 15d0 033c
00000380: 20b8 453c 1d3e 353d 20b8 45bc 25ac 663d
00000390: 1ac4 a4bd 0000 0080 15d0 83bb 15d0 033d
000003a0: 20b8 45bd 184a 143d 15d0 833b 15d0 83bd
000003b0: 2232 56bd 0000 0000 1ac4 243d 1ac4 a4bc
000003c0: 1ac4 a43d 15d0 03bd 15d0 83bd 15d0 033c
000003d0: 1ac4 a4bc 15d0 033c 1ac4 a4bc 20b8 453d
000003e0: 15d0 033d 15d0 83bb 160d 8cbd 25ac e63c
000003f0: 1ac4 a4bc 2726 77bd 184a 14bd 2232 56bd

fc2.bias f4 [128]
0.022810116 0.05754931 -0.046232637 0.0028900849 0.035479333 0.027434291 -0.04052006 0.015563122
-0.0424017 0.05143821 0.0025578036 0.021663805 0.01959549 -0.015458199 -0.04418499 0.025704319
-0.006326096 0.045226358 -0.019324822 -0.01715919 0.018018214 0.043169625 -0.021319954 0.034979064
-0.034088016 -0.02355811 0.08314333 0.022727888 -0.038992558 0.020934733 -0.01136954 0.008989506
0.020672822 -0.032522943 -0.05656907 0.0181814 -0.058752686 0.0013799634 -0.023743417 0.036341317
0.07899078 -0.05838236 0.020193992 -0.03771148 -0.04065925 0.05052359 0.010385946 -0.026364267
0.014869444 -0.03400065 -0.011167383 0.047042504 0.053522747 0.0018057703 0.04358114 -0.01112972
-0.04819275 0.026815608 0.10667854 -0.042680673 0.08713084 0.016521566 0.027124025 0.08629311
-0.037151698 -0.016085071 -0.044379245 0.06101317 -0.024851348 0.07024591 0.055242594 -0.009758048
-0.005381423 0.021468483 0.0465324 0.019297292 0.0039064004 -0.05362458 -0.031126149 -0.0062551443
-0.0030735882 0.0550297 0.0052228286 -0.001931158 -0.029817007 0.044883262 0.0011328652 -0.011729577
0.007161277 0.04565239 0.0052879946 0.041653376 -0.0474462 -0.037652183 -0.025435902 0.017737186
-0.055008948 -0.0011262081 0.042219795 -0.03201262 0.012325998 0.02951234 0.025474897 -0.028199632
-0.029420309 -0.03289808 -0.052968428 0.04849806 -0.010037921 0.039673008 0.035595767 -0.04033569
-0.0063827634 -0.054021515 -0.026116917 -0.032572154 0.052152075 0.047477815 0.047023207 -0.07928231
0.038520735 0.057623412 -0.004392457 0.011675842 0.0021937243 -0.014906118 0.004151978 -0.020383064
00000000: 48dc ba3c d3b8 6b3d 6f5e 3dbd 9467 3d3b
00000010: c752 113d e1bd e03c 5df8 25bd 77fc 7e3c
00000020: 68ad 2dbd dfb0 523d d3a0 273b 4b78 b13c
00000030: b986 a03c 6344 7dbc 52fb 34bd dd91 d23c
00000040: 244b cfbb 463f 393d 174f 9ebc 6e91 8cbc
00000050: ef9a 933c a2d2 303d 2fa7 aebc 3546 0f3d
00000060: e09f 0bbd f0fc c0bc 0d47 aa3d d62f ba3c
00000070: a9b6 1fbd 517f ab3c 4f47 3abc b948 133c
00000080: 0d5a a93c c736 05bd f8b4 67bd 29f1 943c
00000090: a8a6 70bd e3df b43a 8e81 c2bc a2da 143d
000000a0: ebc5 a13d 5722 6fbd df6d a53c 5a77 1abd
000000b0: 508a 26bd d3f1 4e3d d129 2a3c e0f9 d7bc
000000c0: f89e 733c 4444 0bbd 66f7 36bc a4af 403d
000000d0: ab3a 5b3d 99af ec3a 2382 323d 6e59 36bc
000000e0: c365 45bd 68ac db3c 477a da3d eed1 2ebd
000000f0: a771 b23d 3c58 873c 3433 de3c 71ba b03d
00000100: 612c 18bd d7c4 83bc 03c7 35bd f2e8 793d
00000110: 0e95 cbbc 16dd 8f3d 0f46 623d 38e0 1fbc
00000120: a656 b0bb acde af3c c298 3e3d 5b15 9e3c
00000130: 4301 803b 73a5 5bbd 44fc febc f4f7 ccbb
00000140: 416e 49bb d366 613d 4324 ab3b e91e fdba
00000150: cc42 f4bc 83d7 373d a67c 943a 692d 40bc
00000160: 25a9 ea3b 00fe 3a3d ea46 ad3b bb9c 2a3d
00000170: f256 42bd 2d39 1abd f45e d0bc 934d 913c
00000180: 1051 61bd 469d 93ba aaee 2c3d aa1f 03bd
00000190: fcf2 493c ddc3 f13c bbb0 d03c ea02 e7bc
000001a0: dc02 f1bc 23c0 06bd 6cf5 58bd e7a5 463d
000001b0: 1876 24bc 2a80 223d decc 113d 0937 25bd
000001c0: 8026 d1bb aa45 5dbd 25f3 d5bc 616a 05bd
000001d0: 6a9d 553d 1978 423d 689b 403d c45e a2bd
000001e0: ebc7 1d3d 8706 6c3d 9aee 8fbb 084c 3f3c
000001f0: 96c4 0f3b ca38 74bc 510d 883b 62fa a6bc

fc3.weight f4 [10, 128]
-0.12470085 -0.11665563 0.13676867 0.08849738 -0.10458781 0.11665563 0.11263303 -0.16492693
-0.036203474 -0.1005652 0.068384334 -0.27755997 -0.07642955 -0.28560516 -0.008045216 -0.052293904
-0.12470085 -0.032180864 0.02413565 0.032180864 0.08447477 -0.08447477 0.04424869 -0.16492693
0.36605734 0.07240695 -0.07240695 0.38214776 0.11263303 -0.16090432 -0.016090432 0.068384334
0.13676867 -0.07240695 -0.18503997 -0.052293904 -0.04424869 0.12470085 -0.016090432 0.12470085
0.06436173 0.056316514 0.036203474 -0.068384334 -0.052293904 -0.108610414 -0.012067825 -0.1005652
0.18906258 0.0482713 0.32985386 -0.1005652 -0.036203474 0.028158257 -0.008045216 -0.04022608
0.10458781 -0.008045216 -0.10458781 -0.0482713 0.028158257 -0.07642955 -0.11665563 -0.27353734
-0.06033912 -0.008045216 0.06033912 -0.036203474 -0.24537909 0.205153 0.07240695 0.0482713
-0.056316514 0.052293904 0.21319823 -0.016090432 0.052293904 0.17297214 -0.25342432 0.032180864
-0.1528591 0.02011304 0.1448139 0.07642955 -0.004022608 -0.24537909 -0.0482713 -0.08447477
-0.15688172 0.08447477 0.13274607 -0.16894954 0.12067824 0.016090432 0.23331127 -0.056316514
0.15688172 -0.11263303 0.3419217 -0.16090432 -0.26951474 0.12470085 0.068384334 -0.11665563
-0.12067824 0.108610414 0.004022608 -0.16894954 0.068384334 0.32180864 0.07240695 -0.06033912
-0.4022608 0.11665563 -0.10458781 0.07642955 0.12872346 -0.22124344 -0.07642955 -0.205153
-0.11665563 -0.028158257 0.17297214 -0.068384334 -0.06033912 -0.1448139 -0.12470085 0.036203474
-0.056316514 -0.17699476 -0.13274607 -0.06436173 0.012067825 0.036203474 -0.0482713 -0.016090432
0.04022608 -0.028158257 -0.0 -0.17297214 0.18503997 0.25342432 0.016090432 0.13274607
0.20917562 -0.052293904 -0.16894954 -0.11263303 -0.02413565 -0.2614695 0.28560516 0.1005652
0.028158257 -0.04424869 0.0482713 -0.18101737 0.036203474 -0.13274607 0.07642955 -0.25342432
-0.036203474 0.08045216 0.26951474 0.27755997 0.16894954 -0.14079128 0.0482713 -0.16090432
0.16090432 0.036203474 -0.18503997 -0.08849738 -0.0 0.13274607 0.012067825 0.16090432
-0.1005652 -0.2011304 -0.24135648 -0.24135648 0.09251998 -0.08045216 -0.028158257 -0.032180864
-0.27353734 -0.15688172 0.0965426 0.15688172 -0.22124344 -0.02413565 -0.18906258 -0.15688172
0.16894954 0.04022608 -0.0965426 0.004022608 -0.08849738 -0.14079128 0.028158257 0.205153
0.3580121 -0.2011304 -0.08849738 -0.08447477 0.04022608 -0.07642955 0.23331127 -0.052293904
0.028158257 -0.07642955 -0.23733388 -0.04022608 0.06436173 0.27353734 0.06033912 0.108610414
0.1528591 0.1448139 -0.18503997 -0.13274607 -0.12470085 -0.08045216 0.09251998 -0.016090432
-0.032180864 0.108610414 -0.13676867 0.008045216 0.3419217 -0.16894954 -0.012067825 -0.15688172
-0.02413565 -0.16894954 0.09251998 0.13274607 0.16894954 -0.1528591 0.06436173 -0.0482713
0.14079128 -0.016090432 0.028158257 -0.07240695 -0.052293904 -0.16492693 -0.012067825 0.4545547
-0.07240695 0.26951474 -0.12470085 0.205153 -0.12470085 0.22526605 0.1930852 0.068384334
00000000: 2963 ffbd 26e9 eebd 160d 0c3e 1d3e b53d
00000010: 2232 d6bd 26e9 ee3d 25ac e63d 9be2 28be
00000020: 184a 14bd 21f5 cdbd 160d 8c3d 571c 8ebe
00000030: 1987 9cbd d73a 92be 15d0 03bc 2232 56bd
00000040: 2963 ffbd 15d0 03bd 20b8 c53c 15d0 033d
00000050: 1c01 ad3d 1c01 adbd 1d3e 353d 9be2 28be
00000060: de6b bb3e 184a 943d 184a 94bd dfa8 c33e
00000070: 25ac e63d 1ac4 24be 15d0 83bc 160d 8c3d
00000080: 160d 0c3e 184a 94bd 1e7b 3dbe 2232 56bd
00000090: 1d3e 35bd 2963 ff3d 15d0 83bc 2963 ff3d
000000a0: 15d0 833d 25ac 663d 184a 143d 160d 8cbd
000000b0: 2232 56bd 236f debd 20b8 45bc 21f5 cdbd
000000c0: 9f99 413e 20b8 453d 9be2 a83e 21f5 cdbd
000000d0: 184a 14bd 25ac e63c 15d0 03bc 1ac4 24bd
000000e0: 2232 d63d 15d0 03bc 2232 d6bd 20b8 45bd
000000f0: 25ac e63c 1987 9cbd 26e9 eebd 160d 8cbe
00000100: 2726 77bd 15d0 03bc 2726 773d 184a 14bd
00000110: a844 7bbe a113 523e 184a 943d 20b8 453d
00000120: 25ac 66bd 2232 563d a350 5a3e 15d0 83bc
00000130: 2232 563d 9c1f 313e d5c0 81be 15d0 033d
00000140: 1987 1cbe 1ac4 a43c 184a 143e 1987 9c3d
00000150: 15d0 83bb a844 7bbe 20b8 45bd 1c01 adbd
00000160: 9aa5 20be 1c01 ad3d 96ee 073e 1c01 2dbe
00000170: 2726 f73d 15d0 833c 26e9 6e3e 25ac 66bd
00000180: 9aa5 203e 25ac e6bd 5c10 af3e 1ac4 24be
00000190: d6fd 89be 2963 ff3d 160d 8c3d 26e9 eebd
000001a0: 2726 f7bd 236f de3d 15d0 833b 1c01 2dbe
000001b0: 160d 8c3d 1ac4 a43e 184a 943d 2726 77bd
000001c0: 21f5 cdbe 26e9 ee3d 2232 d6bd 1987 9c3d
000001d0: 15d0 033e a48d 62be 1987 9cbd a113 52be
000001e0: 26e9 eebd 25ac e6bc 9c1f 313e 160d 8cbd
000001f0: 2726 77bd 184a 14be 2963 ffbd 184a 143d
00000200: 25ac 66bd 1d3e 35be 96ee 07be 15d0 83bd
00000210: 20b8 453c 184a 143d 20b8 45bd 15d0 83bc
00000220: 1ac4 243d 25ac e6bc 0000 0080 9c1f 31be
00000230: 1e7b 3d3e d5c0 813e 15d0 833c 96ee 073e
00000240: 2232 563e 2232 56bd 1c01 2dbe 25ac e6bd
00000250: 20b8 c5bc 55df 85be d73a 923e 21f5 cd3d
00000260: 25ac e63c 1d3e 35bd 20b8 453d 9e5c 39be
00000270: 184a 143d 96ee 07be 1987 9c3d d5c0 81be
00000280: 184a 14bd 1ac4 a43d d6fd 893e 571c 8e3e
00000290: 1c01 2d3e 972b 10be 20b8 453d 1ac4 24be
000002a0: 1ac4 243e 184a 143d 1e7b 3dbe 1d3e b5bd
000002b0: 0000 0080 96ee 073e 20b8 453c 1ac4 243e
000002c0: 21f5 cdbd 21f5 4dbe 2726 77be 2726 77be
000002d0: 1e7b bd3d 1ac4 a4bd 25ac e6bc 15d0 03bd
000002e0: 160d 8cbe 9aa5 20be 20b8 c53d 9aa5 203e
000002f0: a48d 62be 20b8 c5bc 9f99 41be 9aa5 20be
00000300: 1c01 2d3e 1ac4 243d 20b8 c5bd 15d0 833b
00000310: 1d3e b5bd 972b 10be 25ac e63c a113 523e
00000320: 5d4d b73e 21f5 4dbe 1d3e b5bd 1c01 adbd
00000330: 1ac4 243d 1987 9cbd 26e9 6e3e 2232 56bd
00000340: 25ac e63c 1987 9cbd a707 73be 1ac4 24bd
00000350: 15d0 833d 160d 8c3e 2726 773d 236f de3d
00000360: 1987 1c3e 184a 143e 1e7b 3dbe 96ee 07be
00000370: 2963 ffbd 1ac4 a4bd 1e7b bd3d 15d0 83bc
00000380: 15d0 03bd 236f de3d 160d 0cbe 15d0 033c
00000390: 5c10 af3e 1c01 2dbe 20b8 45bc 9aa5 20be
000003a0: 20b8 c5bc 1c01 2dbe 1e7b bd3d 96ee 073e
000003b0: 1c01 2d3e 1987 1cbe 15d0 833d 20b8 45bd
000003c0: 972b 103e 15d0 83bc 25ac e63c 184a 94bd
000003d0: 2232 56bd 9be2 28be 20b8 45bc 65bb e83e
000003e0: 184a 94bd d6fd 893e 2963 ffbd a113 523e
000003f0: 2963 ffbd 25ac 663e 20b8 453e 160d 8c3d

fc3.bias f4 [10]
-0.14863434 -0.031272944 0.014325866 0.06591427 0.11224308 -0.017736848 -0.051196888 -0.056211047
0.06902135 0.11758017
00000000: 9a33 18be 0f18 00bd 09b7 6a3c 10fe 863d
00000010: b3df e53d de4c 91bc d4b3 51bd 8e3d 66bd
00000020: 115b 8d3d dfcd f03d
