RNN(/models/mnist_rnn_model.pth (torch, 87696 bytes, 4 tensors)

rnn.0.weight f4 [128, 156]
000000 8b b0 19 3c 71 41 73 3c d5 20 ca bd 9b 20 31 bd
       0.00938047 0.014847145 -0.098695435 -0.043243986
000010 eb ba 0c be ca 98 96 bd a7 ca 83 bd 24 3f e9 bd
       -0.13743179 -0.07353361 -0.06435137 -0.11388996
000020 17 d2 6f 3d df 9e 9b 3d 59 78 87 3d 8a e2 46 3d
       0.058549967 0.07598662 0.06614751 0.04855589
000030 c4 c1 77 bc ac 1d 9e bb 84 7f 97 bd 98 39 24 be
       -0.015121881 -0.0048253145 -0.073973686 -0.16037595
000040 23 01 23 bd 2d 7a 5e bd 5d e3 a7 3d 35 ee 4c 3d
       -0.039796006 -0.054315735 0.08197663 0.05003186
000050 dd c3 ce 3d 25 26 be 3d b9 22 3d 3e 4d be f2 3d
       0.10095952 0.09284619 0.18470277 0.11852703
000060 55 82 e2 3d f5 2c 86 3c c8 84 c5 bc 79 e1 aa bc
       0.11060015 0.016378859 -0.024111167 -0.020859467
000070 19 78 99 3e 78 cd e5 3d 82 b6 3c be e2 4b 50 3d
       0.2997444 0.11220831 -0.18428996 0.050853617
000080 cd cc 35 3e f4 12 6b bd 57 4d 50 3d 37 f4 95 bd
       0.17753907 -0.057391122 0.050855007 -0.07321971
000090 9d a9 c3 3d c0 d5 bc bd 9e c1 d4 b9 fc c4 02 bb
       0.095538355 -0.09220457 -0.00040580047 -0.0019953838
0000a0 74 2c a4 3d 19 36 2c 3e 53 ed 2b 38 bc 27 66 bd
       0.08016291 0.16817512 4.0990602e-05 -0.056190237
0000b0 ce 4f 96 3c ff 07 d1 bb d1 eb fd 3d 42 bd 76 bc
       0.0183486 -0.006379127 0.12398494 -0.015059771
0000c0 b2 bb bc bd e2 d5 08 3d 09 ba 45 3d 54 b8 47 bc
       -0.092154875 0.0334071 0.04827312 -0.012189943
0000d0 c3 fb c4 bd 4c 5c 91 3d f1 36 4a bd 17 7c 6c 3d
       -0.09618332 0.07097682 -0.049368802 0.05773553
0000e0 b1 e1 f3 3d 8c c9 92 bd a8 78 75 3d d1 50 77 be
       0.119082816 -0.07167348 0.05992952 -0.24151923
0000f0 f9 c8 61 bc cf 09 2f 3d d6 c3 69 3d f5 3b 0e 3d
       -0.013780826 0.042733964 0.05707153 0.03472515
000100 19 94 cc ba 9d 20 1d 3e 85 f7 17 3e e5 5a 71 3e
       -0.0015608101 0.15344472 0.14840515 0.2356983
000110 34 72 b5 bc 2c 96 b3 bd 83 a5 82 3d ac 11 81 bd
       -0.022149183 -0.087688774 0.06379225 -0.06302199
000120 a7 68 dc 3d 72 68 fe 3d 6f 60 f5 3d f8 74 1d be
       0.10762148 0.12422265 0.11981284 -0.15376651
000130 04 ba 04 3c 42 29 15 be a3 8c bb bd 31 3f ec bb
       0.00810099 -0.1456652 -0.09157684 -0.0072096814
000140 06 e2 be 3c ab 2f 6a 3d 54 3c ec 3c 0d 90 8d bd
       0.023301136 0.057174366 0.02883736 -0.06912241
000150 66 1f 60 3e 6b 74 1e be ef f6 a4 ba 2c 14 f1 bc
       0.21886978 -0.15474097 -0.0012585799 -0.029428564
000160 00 2c 7c be 37 0e 2a 3e 90 ed 14 be 9c 35 84 bd
       -0.2462616 0.16606985 -0.14543748 -0.06455538
000170 9d 34 a9 3c 28 cb ea 3d ba 9d 98 bd 58 7f 9b 3d
       0.02065497 0.1146453 -0.07451959 0.07592648
000180 61 fa a6 bd 32 3a 58 3d a9 7b a9 bd d2 c6 38 bc
       -0.08153225 0.052789874 -0.082755394 -0.011277871
000190 6e 87 50 be 34 95 cc 3d e4 36 56 bb a1 04 57 be
       -0.20364162 0.09989396 -0.0032686526 -0.2099786
0001a0 e2 c9 fa 3d 82 fc 88 3d 66 77 0d 3e 54 3e 34 3e
       0.12245537 0.06688787 0.13815078 0.17601901
0001b0 f6 a9 15 bd 05 b4 8b bc 62 4e 55 bd a8 5f 53 bc
       -0.03653904 -0.017053613 -0.052076705 -0.012901224
0001c0 ab 0d c0 3d 6d 5e 08 3e 0f c9 19 be 0a 46 7f be
       0.09377607 0.1331727 -0.15018104 -0.24929062
0001d0 49 bd 98 bd 21 00 0f bd 8b ec 06 3e 5f 3e cd 3c
       -0.07457978 -0.034912232 0.13176171 0.025054155
0001e0 81 15 0b be 30 b0 98 3c aa 8e 31 bb 26 3b 52 3d
       -0.13582422 0.0186387 -0.002709309 0.05132594
0001f0 8d e2 82 3d 38 ce 5c 3d d1 ce 24 bd 73 e9 4f bd
       0.063908674 0.053907603 -0.040236298 -0.050759744
000200 bc fd 85 bc 69 9a dc bd f1 ce bf bd 38 b6 cf 3d
       -0.016356342 -0.10771639 -0.09365643 0.10142177
000210 75 3d 6e bd d6 d7 60 3e 7e c2 d2 3d 54 50 a9 3c
       -0.05816408 0.21957335 0.10291003 0.020668186
000220 f1 43 f3 3d 41 70 64 3d 2a b7 07 be d7 eb 24 be
       0.11878193 0.055771116 -0.13253465 -0.16105591
000230 c2 b4 47 bd d6 4c 33 3e 86 c7 d9 3b 48 93 c9 3d
       -0.04875637 0.1750978 0.0066460995 0.09842545
000240 50 c2 e7 bc 4c cf c5 3d fd 4b 71 bd 6b 09 c9 bd
       -0.028290898 0.09658679 -0.05891036 -0.098162495
000250 ea 79 13 3d 63 b5 1f bd cd c7 5c bd ef 65 9f 3c
       0.03600494 -0.038991343 -0.053901482 0.019457785
000260 65 0e 9d bd 7f 6f 32 bd 75 7d ea bd 28 f7 37 be
       -0.07668761 -0.043563362 -0.1144971 -0.17965376
000270 08 6f 03 be 73 30 5c 3c 5d 24 d1 bd ac 1b ea bc
       -0.12835324 0.013439286 -0.10212014 -0.028577648
000280 95 ee e9 bc c5 9d 86 bd 43 8f 6d bd 9c db e4 3c
       -0.028556148 -0.06573061 -0.057997953 0.02793675
000290 db b6 cc 3d f1 a5 9d 3c 2e 0f 08 3d 3c 3c fe 3d
       0.099958144 0.019244166 0.0332176 0.124138325
0002a0 da 8d 98 3d 85 f8 99 3d d3 7d e3 3d d1 35 b8 3d
       0.07448931 0.075181045 0.111079834 0.0899464
0002b0 a9 22 14 bd 88 5d 17 bd 33 ec b4 bd d9 1f 97 3a
       -0.036165867 -0.036954433 -0.08834114 0.0011529877
0002c0 bc 3e 30 be d2 9d 42 be da f2 1b be fc f9 61 3b
       -0.17211431 -0.19005516 -0.1522936 0.0034481278
0002d0 1b 87 51 3d 9a c8 86 bc 4b 37 7f 3b 01 4e ac bd
       0.051154237 -0.016453076 0.003894287 -0.084133156
0002e0 ca 22 3c 3d 50 0c 4e 3e a4 69 78 3d fd cd 07 bd
       0.045931615 0.20121884 0.06064762 -0.03315543
0002f0 fa c5 a7 3e db 44 18 bb 9a ae 76 3d e8 4d c0 bd
       0.32768232 -0.00232344 0.060225107 -0.093898594
000300 ae 16 ac 3d 3c df 1e bc 31 5c fc 3d e8 70 67 bd
       0.08402763 -0.009696778 0.123222716 -0.05650416
000310 f2 37 70 3d 35 29 96 bd ec 3d 08 3e 2b 95 08 3e
       0.058647104 -0.07332078 0.13304871 0.13338153
000320 0b a4 a1 bd 19 f5 4a be 48 6b 3a 3d 3a 09 3a 3a
       -0.07892617 -0.1982006 0.045512468 0.0007096712
000330 c8 cc ae 3c 28 0e a5 3a 91 3d fd 3d a0 56 5a bd
       0.021337882 0.001259272 0.123652585 -0.05330527
000340 d4 54 65 3e cb 58 bc bd 5c b6 2b 3d d0 3c a7 bd
       0.2239564 -0.091966234 0.04192196 -0.08165896
000350 93 6e b3 bc 77 54 c0 bc ce 0c 20 b9 4a a1 89 bd
       -0.021903312 -0.023477776 -0.00015263559 -0.067202166
000360 c8 1e 9b bd 5b 9e 31 3e d0 d5 0a be 84 84 a3 3a
       -0.075742304 0.17345564 -0.13558125 0.0012475406
000370 76 cf 62 be 43 4d a6 3d 96 02 26 3e 1a a8 b6 3d
       -0.22149453 0.08120205 0.16211924 0.089187816
000380 f3 c3 82 3d 22 64 c8 3d ed ea 3a 3d 2f d8 8c 3d
       0.063850306 0.09784724 0.0456342 0.06877171
000390 25 a6 14 bc d6 5d 60 bc fd c4 a8 bd 06 bd 0e 3e
       -0.009072815 -0.013694247 -0.082406975 0.13939294
0003a0 77 f1 17 3e 9e 5d 0b 3d 7b bf 31 3d e1 59 e1 3c
       0.14838205 0.034024827 0.0433955 0.027508678
0003b0 d0 8f 8b 3d f4 b1 cc bd 65 ff 92 3d ca 90 ef bc
       0.068145394 -0.09994879 0.07177619 -0.029243845
0003c0 ac 1f b3 3d 6d f9 8e 3d 99 f1 38 bd f2 e6 e1 3d
       0.08746275 0.06981168 -0.04515228 0.110303774
0003d0 cc 5d dd bd f3 9e 38 be 48 e9 17 3d 45 1c a8 bd
       -0.10808906 -0.18029384 0.03708771 -0.08208517
0003e0 bc 0c 66 bd d5 99 3b bd 3f f7 18 be 5c ff 05 be
       -0.05616449 -0.045801003 -0.14938067 -0.13085693
0003f0 06 35 90 bd 40 7b 87 bd 68 da cb 3d 0b 55 bb 3d
       -0.070413634 -0.06615305 0.09953767 0.0914708

rnn.0.bias f4 [128]
000000 82 80 53 bc d2 de a0 3c 51 fc 35 bd 07 8a 8e 3d
       -0.012909057 0.019637499 -0.04443008 0.069599204
000010 38 61 b0 bc 66 2f d4 bd 99 32 c1 3c a4 66 37 be
       -0.021530733 -0.10360603 0.023583697 -0.17910248
000020 51 2e 28 bd 63 a0 77 bd ec 2c 0e 3e d1 3b 4a 3e
       -0.041059796 -0.06045569 0.13884324 0.1974938
000030 4c 2c 1d 3e a7 28 e9 bc b1 82 63 3d a3 07 28 be
       0.15348929 -0.028461767 0.05554456 -0.16409163
000040 78 ee 0d 3d 04 16 73 bd 70 ab 68 3d c4 9b d1 3c
       0.03465125 -0.059347168 0.05680412 0.02558697
000050 8e ee ed 3d 86 c7 c7 bd 8e 27 e1 3c 90 05 e9 3d
       0.11617766 -0.09754853 0.027484681 0.11378014
000060 51 2a 25 be c8 7d 4a 3d 68 2a 86 3c d3 b6 24 3e
       -0.16129424 0.04943636 0.016377643 0.16085367
000070 66 5a 4f bd ac 4b c3 bd 01 a2 4e bd a5 48 84 bc
       -0.05062332 -0.09535918 -0.050447468 -0.01614792
000080 f3 ee 65 3d 67 6a 01 3d dc e6 cd bd 77 97 da 3d
       0.056136083 0.031595614 -0.100537986 0.10673421
000090 31 2c aa bc 9d 73 d4 b9 87 cc 3a be 54 48 06 be
       -0.020773025 -0.0004052193 -0.18242083 -0.13113528
0000a0 8f 9a 0f bd 9f cf e0 bd ba 72 bc 3d cd 5d 75 3b
       -0.035059508 -0.109771006 0.0920157 0.0037439943
0000b0 a5 cc 1a 3d d5 f2 41 3d 33 c4 d1 bd 91 68 5f bd
       0.03779282 0.047350723 -0.102425 -0.05454308
0000c0 3c a5 9c 3d de bb cd 3d a5 bb ed ba 36 2e 38 bd
       0.076487035 0.100455984 -0.0018137587 -0.044965945
0000d0 b5 0c 61 bc 53 ef ac 3d ba 04 1b 3d 8d 42 c7 3d
       -0.01373594 0.08444085 0.037846304 0.097294904
0000e0 3d 88 d7 3d 7c 2b 2f be a6 9e 0d 3e ed 4a 04 3d
       0.10524032 -0.17106432 0.13830051 0.032298017
0000f0 c4 c3 17 3e 9b 12 45 3e f8 e6 d9 3d 61 9f c9 3d
       0.14820772 0.19245379 0.10639757 0.09844852
000100 0d 1d b6 bd 39 92 dc 3d b4 03 fe 3d b6 39 fc 3c
       -0.0889226 0.10770077 0.1240305 0.030789237
000110 0b c4 f0 3c c5 f0 98 3c 7c 31 32 3d 8c 5e 82 bc
       0.029390356 0.018669495 0.043504223 -0.015914224
000120 e0 ab e4 bd 13 47 e4 3c 1e 87 f1 3d 88 19 16 3e
       -0.11165595 0.027865922 0.1179335 0.14658177
000130 50 94 ae 3d 01 f9 49 be 4a d3 85 3d 23 1b 7c bd
       0.08524382 -0.19723894 0.06534441 -0.061549317
000140 43 80 07 be 37 a0 28 be 23 c0 04 be 11 7f 86 3c
       -0.13232522 -0.16467367 -0.1296392 0.016418012
000150 f1 71 41 3d ab 30 b1 3c a5 8c f3 bd 5d f3 a2 ba
       0.047227804 0.021629652 -0.1189206 -0.0012432147
000160 0d 56 3f 3d ec ce d1 bd 3f ba 3e bd 2f 6a e4 bd
       0.046712924 -0.10244545 -0.046564337 -0.111530654
000170 cc f2 ad bc d0 5e 30 bd d8 69 ca 3c 3b 9f 80 bd
       -0.021233939 -0.04305917 0.024708673 -0.06280371
000180 e4 2f e9 bd 65 2b b8 3d a9 66 83 bc d1 de a3 3b
       -0.113860875 0.08992652 -0.016040163 0.005000927
000190 d5 ba 1d bd 02 7f 25 3e 56 c6 25 3d 9b 9c b7 3d
       -0.038508255 0.16161731 0.04047235 0.08965417
0001a0 c6 23 6e bd ec e5 f8 bd 07 62 10 bd 07 04 7f bd
       -0.058139585 -0.12153229 -0.035249736 -0.0622597
0001b0 00 1e d9 b9 fd 59 f5 3c ec c0 ba 3c 3f 3a 46 bd
       -0.00041411817 0.029950136 0.02279707 -0.04839539
0001c0 24 73 b1 bd 55 d8 41 be ae 7a b4 3d 30 35 7d bd
       -0.086645395 -0.1893018 0.08812462 -0.0618183
0001d0 fa a2 8f 3d eb 24 76 3c 5e 4d c2 bc 28 57 09 bd
       0.07013507 0.01502345 -0.023718532 -0.033530384
0001e0 f8 64 8c bc 3e b6 64 bc 19 b7 be 3d a1 c2 67 bd
       -0.01713799 -0.013959466 0.09312267 -0.056582097
0001f0 96 e8 3a be 86 64 1c be 17 f9 db 3c e2 8b 2d be
       -0.18252787 -0.15272722 0.026852174 -0.16947892

fc.weight f4 [10, 128]
000000 10 b7 58 be 0e 51 6c bd 93 05 61 3e e8 b0 b1 3d
       -0.21163583 -0.057694487 0.21974783 0.0867632
000010 79 9e ac ba 45 63 6f 3e bb f3 75 3e a3 5f 5f 3a
       -0.0013169787 0.23377712 0.24018757 0.0008521026
000020 1a 71 84 3e 88 53 15 be 63 07 ec b7 77 01 94 3c
       0.2586754 -0.14582646 -2.8136832e-05 0.018067105
000030 51 34 6f bd fd c6 9a 3e ac 9f b1 bd 46 77 c4 bd
       -0.058399502 0.3022994 -0.08673033 -0.09593062
000040 6e ac c8 bd 42 b1 09 3e 06 30 a3 3d a8 fe a1 3d
       -0.09798513 0.13446525 0.07968144 0.079099
000050 c8 8d 9a 3e 88 79 0c 3a c3 be 15 bd f2 b6 f1 3b
       0.30186296 0.0005358686 -0.036558878 0.007376545
000060 d0 31 87 be f6 ee 5e be 0f 56 10 3e 08 ae 55 be
       -0.2640519 -0.21770844 0.14095329 -0.20867169
000070 70 db 93 bc 90 44 d9 bd 9b 41 20 3e 85 a3 0a be
       -0.018048972 -0.106087804 0.15650027 -0.1353894
000080 a2 92 44 be 5f 79 1c be 41 81 3c bd 09 89 8b bd
       -0.19196561 -0.15280674 -0.046021704 -0.06813247
000090 a9 0d 76 bd a7 d9 2e be cb af 8b 3e 16 af 44 be
       -0.06007162 -0.17075215 0.27282557 -0.19207415
0000a0 c7 a0 82 bd 1f dc 01 be d6 4b 1d 3e da 27 50 3e
       -0.06378322 -0.12681626 0.1536096 0.20327702
0000b0 14 8a 53 be e0 2e af be 88 3c 88 3e 43 eb 4e bb
       -0.20658141 -0.3421545 0.26608682 -0.0031573332
0000c0 2b e1 94 be d7 57 13 3e ea c5 f2 bd b4 5c 02 3e
       -0.2907804 0.14388977 -0.11854155 0.12730676
0000d0 c8 df e5 bc 8e f4 c2 bd 6a a5 15 3e 56 43 e2 3e
       -0.028060809 -0.09519301 0.14613882 0.44191998
0000e0 56 49 83 be 54 cd 71 be 09 96 bd bd 47 06 0d 3d
       -0.25641888 -0.23613483 -0.092571326 0.034429815
0000f0 45 a3 00 3e 5b e8 d9 bd 6a 48 90 bd 5c 4c fc bc
       0.12562282 -0.106400214 -0.07045062 -0.03079813
000100 ab b5 4e 3e c1 a7 c6 3e 2d 42 c1 3d b3 53 76 bc
       0.20186488 0.3879986 0.0943645 -0.015034604
000110 a4 ed 82 bc 9d ce 03 bd 1a 0f 00 3e b2 b2 27 be
       -0.015982457 -0.032179464 0.12505761 -0.1637676
000120 31 ca 50 be 7d 94 6f be 6f 9c cd bd b9 84 09 3d
       -0.2038963 -0.23396488 -0.10039603 0.03357384
000130 21 67 17 bd 2d 6b 98 3d 6f fc cb 3d c0 2c 05 be
       -0.036963586 0.07442317 0.09960257 -0.13005352
000140 3c cc 57 be f3 02 3a 3e 99 60 0c bc f5 e1 5f be
       -0.21074003 0.18165188 -0.008567953 -0.2186354
000150 f4 8e c1 bd a1 79 36 3e 3d fb a7 be 0b 10 71 be
       -0.09451094 0.17819835 -0.32808867 -0.23541276
000160 e5 9f a5 bd 73 66 8a bc f0 dc b2 bd 43 cc c7 bd
       -0.08087138 -0.016894555 -0.08733547 -0.09755757
000170 bf 29 35 3d cd b1 40 3c 67 36 47 bd 44 80 fa bd
       0.044229265 0.011761141 -0.048635866 -0.12231496
000180 cc 46 1a be 75 bb aa bd 5f fd 72 be 67 0e 19 3e
       -0.1506607 -0.08336536 -0.23729466 0.149469
000190 e5 20 74 3d aa 37 9d bd e5 97 9d be 6c a2 f4 3c
       0.059601683 -0.07676633 -0.3077995 0.029862605
0001a0 fd 04 13 bc 2f 17 18 3e 7c d3 09 be c7 cc 2c be
       -0.008973357 0.14852594 -0.13459581 -0.16874991
0001b0 84 89 b1 bd 3e d5 89 be 7c 9f b7 bd ad 3f ab bd
       -0.08668807 -0.26920503 -0.08965966 -0.083617546
0001c0 d9 74 ba 3d 73 c9 72 3e b5 24 db 3c 92 f4 31 3e
       0.09104318 0.2370966 0.026750902 0.17378452
0001d0 f2 e5 51 be 76 69 9f 3a a8 df 17 3e 71 e2 4b 3e
       -0.20497873 0.0012162167 0.14831412 0.199106
0001e0 29 2e 2f 3e af 38 e5 bd 99 df 0d bd e3 87 e1 3d
       0.17107452 -0.11192452 -0.034637067 0.110122465
0001f0 1d 1d c2 3e b5 ab ae bd 12 f5 40 3d df e6 0c be
       0.37912837 -0.08528844 0.047108717 -0.13759945
000200 5c 3c 81 bd ca f6 e1 3c b5 f7 21 bc 36 8e 51 be
       -0.06310341 0.027583499 -0.009885718 -0.20464405
000210 34 b5 3a bc 89 1f b3 bd 24 8c 82 3d 2e 29 5d bd
       -0.011395741 -0.08746249 0.06374386 -0.05399435
000220 5d 23 44 be 8e 56 2b 3e 2a 8f 26 3e a8 f7 95 3e
       -0.19154115 0.16732237 0.1626555 0.2929051
000230 28 89 63 3e f2 e9 17 be 4d 0d ad 3d b8 0c 9f 3d
       0.2222029 -0.14835337 0.084498025 0.07766098
000240 0f 19 c8 bc d1 80 5a bd 5b 1c 4d bd 47 5f 68 3d
       -0.024426011 -0.053345505 -0.05007587 0.05673149
000250 1f 57 5e 3b 3c d5 a2 3a ac af c7 3d 8e b3 a1 be
       0.003392644 0.0012423168 0.097503036 -0.31582302
000260 45 10 37 be ae 39 85 be cc 5b bd 3d ba da 66 be
       -0.178773 -0.2602057 0.092460245 -0.22544375
000270 c4 aa 5f 3e 54 43 b1 bd 31 5a 1c be d3 5c 94 3e
       0.21842486 -0.0865542 -0.1526878 0.2897707
000280 3a d6 3a 3e 9b 8b 3d 3e 67 f8 04 3e 94 ae 55 3d
       0.18245783 0.18510287 0.12985383 0.052168444
000290 39 7e 82 bd 81 d0 a7 bd 74 6a 13 be dd 2f 1a bd
       -0.06371731 -0.08194066 -0.14396077 -0.037643302
0002a0 02 c1 fb 3d 95 c1 ad 3c ec ad 03 3b f1 00 74 3b
       0.12292673 0.021210471 0.002009268 0.0037232006
0002b0 25 0f 36 be eb 91 a5 3d e6 af bb bd 68 06 0a bd
       -0.17779215 0.08084472 -0.09164409 -0.033697516
0002c0 bb ed b2 be c5 b8 6e be 39 30 83 3d 72 d4 87 bd
       -0.34947 -0.23312671 0.06405682 -0.066323176
0002d0 6d bc 93 bd 83 97 00 be c8 00 fb bd f3 c4 01 bd
       -0.07213674 -0.12557797 -0.122560084 -0.031681966
0002e0 c7 b4 39 3d 5b 8f cc 3c ab c6 d9 bc 13 0d d6 be
       0.04533842 0.024970701 -0.02658399 -0.4180685
0002f0 8e 21 17 be bd 95 34 3e d8 10 4c bd 96 01 4c bc
       -0.14758894 0.17635246 -0.04982075 -0.01245155
000300 56 ad 3a 3c 7e 84 18 3e 4c ea 07 be 09 45 01 3e
       0.011393866 0.14894292 -0.13272971 0.12623991
000310 2c d3 f2 3d 74 14 72 3e c3 b4 79 3e 41 d2 08 be
       0.11856684 0.23640615 0.24385361 -0.13361456
000320 32 26 b6 3e 7f e3 9f 3d 6f 10 f4 3b a3 0f 91 3e
       0.35576016 0.07807063 0.007448248 0.28332242
000330 0f cc a1 be 5b 5d 16 be 04 ea db bd 38 5d 9c bd
       -0.31600997 -0.1468405 -0.10737994 -0.076349676
000340 81 76 0c 3e 4c 0c a3 3c 96 85 0c 3e 17 48 eb 3d
       0.1371708 0.019903325 0.13722834 0.114883594
000350 c0 8c 06 3d 38 cb ef be 80 fa 76 be 97 28 9d 3d
       0.032849073 -0.4683473 -0.24118996 0.076737575
000360 ab 17 14 bd b2 98 93 3e 30 1e 02 3e 77 63 c2 3d
       -0.036155384 0.28827435 0.12706828 0.09491628
000370 9e 92 78 3c 9f 45 96 3d 99 aa 80 3d 46 04 53 3e
       0.015171675 0.07337498 0.06282539 0.20607099
000380 26 4e 28 3e 5b 3c 0b be ad 42 cb 3d c5 c0 8b 3d
       0.16436061 -0.13597243 0.09924827 0.06823877
000390 af 0d b3 3e 9e 7e eb be ba 7f 37 3e c6 90 a7 be
       0.34971377 -0.4599504 0.17919818 -0.3272764
0003a0 d5 5e 5c bd 32 6e 41 3c dc 94 87 3e 21 f6 31 be
       -0.053801376 0.011806058 0.26480758 -0.17379047
0003b0 1a c3 7e bd 77 2d 4a be 6a 59 2a 3e 00 f8 00 3c
       -0.062197782 -0.19743906 0.16635671 0.007871628
0003c0 61 81 1d 3e 66 2a 19 bc dd ef ac 3c d8 b3 ac bd
       0.15381385 -0.0093484875 0.02111047 -0.0843274
0003d0 f8 43 40 bd e2 3d f0 3b e7 a3 d1 bc 72 6b 32 be
       -0.04693982 0.0073315958 -0.02559085 -0.174238
0003e0 4b 00 84 bd 3b e2 b9 3e 9f 7d 53 3e 96 7d ab bb
       -0.064453684 0.36305413 0.2065339 -0.005233477
0003f0 d0 9d ee bd 46 bf 36 3e dc 63 ac 3e af 51 8f bd
       -0.11651194 0.17846403 0.33669937 -0.06998002

fc.bias f4 [10]
000000 f3 b9 2b be 68 9b 1b be fa 39 38 3e d6 8c 0d 3e
       -0.16770153 -0.15196002 0.17990866 0.13823256
000010 2f 33 0f be 2f 55 01 3e 44 b8 83 bd f9 f5 df 3d
       -0.13984369 0.12630151 -0.0643163 0.109355874
000020 54 c1 7b bd ad c5 35 3e
       -0.06146367 0.17751189
